.dart_tool/chrome-device/Default/optimization_guide_prediction_model_downloads/0dc4b227-e52d-4054-b976-ad9a127be56d/model.tflite (tflite, 410364 bytes, 166 tensors)

context_transformer_0/bottleneck_input/norm/add f4 [32]
00000000: d6e8 213d 87b0 9c3d fd3e 0ebc 6649 7a3d
00000010: f8fe a03a fde6 33bd 2cb2 ac3d d4b0 08be
00000020: c880 b4bc 0f6d dc3d f6f8 a73d e195 423d
00000030: c595 adbc f44a b23d c8b7 93bd 489f cabc
00000040: 6c2d be3d 7de4 bb3d 742c 70bd ee90 713d
00000050: f660 063d fd95 03be 50df e7ba 4c93 77bd
00000060: 483c 5fbb b675 54bd 7922 a1bd fe4c a6bd
00000070: 829a f8bc 53a6 8d3d 68c5 c1bc de22 1fbd
0.03952869 0.076508574 -0.00868201 0.061105154 0.0012283018 -0.04392146 0.08432421 -0.13348705
-0.022034064 0.10762989 0.082017824 0.047506217 -0.02118958 0.087057024 -0.07212788 -0.024734154
0.09286007 0.0917444 -0.058636144 0.058976106 0.032807313 -0.12850185 -0.0017690454 -0.060443208
-0.003406303 -0.05187007 -0.07867903 -0.08120154 -0.030347113 0.069164895 -0.023653701 -0.03885161

context_transformer_1/bottleneck_input/norm/add f4 [32]
00000000: eca8 4fbd 46d5 06bd 0071 7cbe 19b9 243d
00000010: 334e 82bc 69a6 49bd 2e5f 173e 8825 c3bd
00000020: e36b fbbc 3a34 0fbc ae91 b9bb 1ecc cebc
00000030: 32a7 353c b3fd 7bbd 70a6 e7bc 921b 49bd
00000040: b480 babd 3e01 12be 0e49 1a3e a2d3 033e
00000050: 8369 7c3e 0ced c83d bc99 733e 64cf 233e
00000060: 1ee6 013e d0ab 8d3d 78e1 91bc c577 8c3d
00000070: 7ec8 d23c 7f82 8cbd 680e bf3c 8cd9 49bd
-0.050698206 -0.032918237 -0.24652481 0.040215585 -0.015906429 -0.049230967 0.14782402 -0.09528643
-0.030691093 -0.008740479 -0.0056631183 -0.025243815 0.011087226 -0.061521243 -0.028277606 -0.04909856
-0.091065794 -0.14258286 0.1506693 0.128737 0.24649625 0.09810838 0.23789114 0.15997082
0.12685439 0.06917536 -0.017807707 0.06858782 0.025730368 -0.06860828 0.0233223 -0.049279734

mention_transformer_0/bottleneck_input/norm/add f4 [32]
00000000: 42d8 443d 7ec4 1f3e da43 d13c 8245 d93d
00000010: b8bf f3bd 8095 2c3e a341 803d 3526 ccbc
00000020: d2ce fcbd 12fb 93be 8dfa 5dbd e66a cd3c
00000030: 7891 0e3e 044d 73bd 0652 473e 56c9 293e
00000040: 9aed 41bd 86ff 903e 6f13 44be 4810 ef3d
00000050: 3a47 d5bd 336d 06bc a821 b6bd b611 ad3d
00000060: 04a7 0a3e ba3c 3cbd 9831 943d b0e6 1c3d
00000070: 3ddf 34bd ad44 db3d 84d0 38be 7a95 e83d
0.048057802 0.156023 0.02554505 0.10608961 -0.11901802 0.16853905 0.06262519 -0.024920562
-0.12344135 -0.2890249 -0.054194022 0.025075387 0.1392268 -0.05939962 0.19464883 0.1658071
-0.047345735 0.2831995 -0.19148038 0.11673027 -0.10413976 -0.008204746 -0.08893138 0.08450644
0.13540274 -0.04595635 0.07236022 0.03830594 -0.04415821 0.10706458 -0.18048292 0.113566354

mention_transformer_1/bottleneck_input/norm/add f4 [32]
00000000: 74ba a63d 0cdc de3e d070 3cbe e097 3dbe
00000010: 8e5a 743e c83b f03b d64a 8fbc 540b e1bd
00000020: 3685 07be 96b2 893e 7348 6f3d 3bad e4bd
00000030: a007 43be 2e98 d43d a525 f0be b090 123d
00000040: 7ec1 573e 88fe 20be 7cde 283c 51a5 073e
00000050: 5330 f53d 5c89 a73c 2c3d dc3d cc29 c63d
00000060: 1a68 aebe 1cba 95be 886e dd3d aaca 103e
00000070: 618f 21bf 14d4 cebe d033 4c3e 7262 88be
0.08141032 0.43527257 -0.1840241 -0.18514967 0.23862669 0.007331345 -0.01749174 -0.10988489
-0.1323441 0.26894063 0.058418702 -0.111658536 -0.19045877 0.103805885 -0.4690372 0.035782516
0.21069905 -0.15722096 0.010306951 0.13246657 0.11972108 0.02045124 0.10753855 0.09675941
-0.34063798 -0.29243553 0.10812098 0.1413981 -0.63109404 -0.40396178 0.1994164 -0.26637608

context_transformer_0/attention/value/add;context_transformer_0/attention/value/einsum/Einsum;context_transformer_0/attention/value/add/ReadVariableOp/resource f4 [32]
00000000: 3151 0ebd 8d1d d8bd 0b7a c03d 743b b1bc
00000010: ea2c 7f3d 7b20 483b 6f2d 833d 72c7 27bd
00000020: ab78 903b bcdb e73b 2e62 89bd 2026 11bc
00000030: a522 1d3c 4ecb 81bc 3a03 62bc 7143 453d
00000040: ab92 533d d6aa e8bd 1238 25bc 526d 36bc
00000050: 0781 6dbd 44dc 413d ae2d a83d 842b a13c
00000060: e794 9a3d 8e84 3d3d 434a c8bd 14a6 bc3d
00000070: ec1d 63bd fc6d 0abe e414 dfbd b5ac 3a3d
-0.0347454 -0.10552511 0.09398278 -0.021634795 0.062298693 0.0030536938 0.0640515 -0.04096169
0.004408916 0.007075755 -0.067081794 -0.008859187 0.009590779 -0.015844014 -0.013794715 0.04816002
0.051653545 -0.11360709 -0.010084169 -0.011134462 -0.05798438 0.047329202 0.08211838 0.01967407
0.07547932 0.046268992 -0.09779789 0.092113644 -0.055448458 -0.13518518 -0.108926564 0.045574863

context_transformer_0/bottleneck_input/norm/mul f4 [32, 32]
00000000: cd29 91bc dd0c babe f540 293e 8ff2 a7bc
00000010: 8d1b e03c 1327 16be 1415 0abe 96d1 913e
00000020: fef2 1e3d b9d2 913a b4b3 b2be 32c4 e03e
00000030: df35 d7bd 165c 14be 36fd 0bbe 6d4f 133e
00000040: b76c 7e3d 280a 563e 2eb1 d73c d377 c0bd
00000050: 40f4 653d b7ae 333d ef74 ffbd 269d 23be
00000060: e691 9cbd b847 c4be f212 d03d 3726 0c3e
00000070: 92b0 3abd 93cf f93d f774 d53b 6f9b 80be
00000080: 39b0 c7bd 749b 1cbf df56 9cbe a4aa fa3d
00000090: 6ae3 0cbe b45d fb3d fe87 8fbd cde2 153e
000000a0: 7588 f83d 51b4 40be 6b1b 103f b0db c53e
000000b0: f35a d33d f044 ecbd f612 bbbc cdd0 c23c
000000c0: ea70 2a3e ef75 993d e7a3 b13e cbb5 9ebe
000000d0: b943 8bbf e993 5cbc 2079 1f3e fc7e a93e
000000e0: ac60 c6bd 073e 933e 0bcb f23d 9bea aabd
000000f0: 8e79 07bf c4dc 2bbe 163b f83d cf9a 0dbf
00000100: 8059 fdbc d98a 8d3e dce2 e8bb 5706 9ebd
00000110: 8428 e73d 5e40 28bd 9236 1abd a243 12be
00000120: 5534 a6bc 47dd 133e c1ce e6be b871 43be
00000130: 06f1 233e 9a2d 9d3c 2346 183d c282 ccbd
00000140: b414 c5bd 45ac 5cbe 7659 773c f814 39be
00000150: 5a9d d6bc 97b4 93bc afb2 b1bc b402 453e
00000160: 42e8 ca3d a5d3 efbd 511c e43b 96ab 093e
00000170: 8a6d 9c3d f31c 0e3e 5137 f33c 9de5 ee3d
00000180: 3d20 d8bd 0625 1cbf ffca 973d 0d89 c53c
00000190: c8e1 fbbe 80c9 04be 9a23 0cbc 2c0a 503e
000001a0: 1d97 9f3e 928b 623e 0687 403e f4cd ba3d
000001b0: 4446 a73e 6792 a33c 997e 8cbc d1c0 08be
000001c0: 1546 153c e7f9 e1bd e233 2b3e b022 bebd
000001d0: 9781 23bf 70a9 333e aa67 cbbe 8cb7 493e
000001e0: e3ca 013d cd4e 463d 7ca8 00be 9592 5fbe
000001f0: 7f94 a8bd d8e2 1cbd da87 86bd c3ee bcbc
00000200: 990b b23d 073c 26bd f7d9 5fbe 454c 843d
00000210: 6b22 b0bd b7b3 4c3d 87e2 393e c1cd 423e
00000220: 320d c3bd 80fa 773e 4936 643d 8eda a6bc
00000230: 76ee e03d 6a02 273d 168a 1c3d 9d1f 553d
00000240: 1289 8abd 9d69 f13d 5a66 063d d2b5 833d
00000250: 51e9 afbd 021e 3d3d 6647 d13c 887e 3e3e
00000260: 4353 82bc 2b72 a13c 2d30 d53d e830 01be
00000270: 4b31 c1bd d336 69be dd4b 2a3d 70fd 1d3e
00000280: 4364 d2be e863 fb3a b871 99be c4f6 143b
00000290: e3fc 003f 89d3 6a3c a1f6 dd3e c409 c6be
000002a0: 7a42 4ebe ceea ecbd e2b8 d93e accf c4bb
000002b0: c73b ac3e bc98 15be 8bc5 b6bd efd5 233e
000002c0: 4281 a73c 9764 213e cd3b 93be de3a f43d
000002d0: 51fa 863e 06d5 653d 648d 9fbe 2dc7 053e
000002e0: 1744 263d c644 ee3d 7f07 233d eb18 703d
000002f0: 6f4a 613e 85a7 ecbe ace2 a13e c417 1d3e
00000300: 6e8c a1be 9a95 133e 9ccd 0dbd 148c 36bd
00000310: 1692 993c 4abe 57bd b6ee 86be 90c7 34be
00000320: 492f ce3c 2801 de3d 41c0 9d3d 678c 4dbe
00000330: 9501 583d e5b4 39be 850a e63c 4a0b c03c
00000340: a2ed 5fbe a935 c63d c850 b6be 6d31 23bd
00000350: 0afe aabb 48e9 27bd ebc0 1f3d 6d46 113e
00000360: 638d c83d 21e5 d6bd 8ffb db3b 8c01 cbbd
00000370: b026 2c3e 81ad 01bf 760d eabd 076a 3d3e
00000380: 3753 883d 0140 94bd f2f3 183e 912c 603e
00000390: 5a4b 90bd 392a 46bf 3181 753c 7de9 d9be
000003a0: 578b 18be 1110 593d 0ae6 5a3f 5ebe c7be
000003b0: b671 26bc b8a7 413e 633e 203e 3d52 aabe
000003c0: 0cc9 debc b4dd c1bd 6b2f e63d 548c 10be
000003d0: c643 b0be 6018 a0bd 5531 8e3d 1c0a 54be
000003e0: 3e5d d2bd 8246 af3e 8a03 d2be 493a 5ebe
000003f0: 4776 67be b660 a6bd 4e4f 38be b4b5 4b3e
-0.017720127 -0.3633794 0.16528685 -0.020501403 0.027356887 -0.14663343 -0.13484603 0.28480214
0.038805954 0.0011125422 -0.34902728 0.43899685 -0.10508322 -0.14488253 -0.13670811 0.14385767
0.062115397 0.20902312 0.026329603 -0.09397855 0.056141138 0.043867793 -0.12473475 -0.15977916
-0.076450154 -0.38335967 0.101598635 0.13686453 -0.045578547 0.12197795 0.0065141874 -0.25118586
-0.09750409 -0.611747 -0.30535027 0.12239578 -0.13758627 0.12273732 -0.0700836 0.14637299
0.12135402 -0.18818785 0.56291837 0.3864417 0.103200816 -0.11536586 -0.02283619 0.023781205
0.16644636 0.07493197 0.3469536 -0.30998072 -1.0880042 -0.013462999 0.1557355 0.33104694
-0.096864074 0.2875826 0.118551336 -0.08345529 -0.5291985 -0.16783434 0.12120645 -0.55314344
-0.030926466 0.27644995 -0.007107122 -0.07716053 0.112870246 -0.04107701 -0.0376497 -0.14283612
-0.020288626 0.1443988 -0.45079616 -0.19086349 0.16009912 0.019186784 0.037176263 -0.099858776
-0.096230894 -0.2155009 0.015097013 -0.18074405 -0.026198078 -0.018030448 -0.021691648 0.19239312
0.09907581 -0.1171029 0.0069613834 0.13444361 0.076380804 0.13878231 0.029689463 0.11664889
-0.10553024 -0.60993993 0.07411765 0.024113202 -0.49195695 -0.12967491 -0.00855341 0.2031638
0.31169978 0.22123554 0.18801507 0.09121314 0.32670796 0.019967271 -0.01715021 -0.13354804
0.009110947 -0.11033993 0.1671901 -0.0928396 -0.63869613 0.17545104 -0.39727527 0.19698924
0.03168763 0.048414994 -0.12564272 -0.2183326 -0.082314484 -0.038302273 -0.065688804 -0.02306307
0.08693618 -0.04058459 -0.2186049 0.0645986 -0.08600315 0.049976077 0.1815282 0.19023801
-0.09524001 0.24216652 0.055715833 -0.020367887 0.10982983 0.040773787 0.038217627 0.052032102
-0.06764425 0.11787722 0.032812454 0.06431164 -0.085894234 0.046171196 0.02554674 0.18602955
-0.015908843 0.01970776 0.104095794 -0.12616313 -0.0943323 -0.2277482 0.041576255 0.1542871
-0.4109212 0.0019179555 -0.29969573 0.0022730092 0.50385875 0.0143326605 0.43352225 -0.38679326
-0.20142546 -0.11568223 0.42523867 -0.0060062017 0.33639356 -0.14609045 -0.08924397 0.15999578
0.020447377 0.15761028 -0.28756562 0.119252905 0.2636285 0.056111358 -0.3116256 0.13064261
0.04059228 0.11634211 0.03980207 0.058617514 0.2200105 -0.46221557 0.3161825 0.15341097
-0.31552452 0.14412537 -0.034619913 -0.044567183 0.018746417 -0.05267171 -0.26353997 -0.17654252
0.025169032 0.10840064 0.07702685 -0.2007309 0.052735884 -0.18135412 0.028081188 0.023442883
-0.21867993 0.096782036 -0.35608506 -0.039842058 -0.005218272 -0.04099396 0.03900234 0.14187022
0.097925924 -0.104929216 0.0067133377 -0.099124044 0.16811633 -0.5065537 -0.11428349 0.18497477
0.06656497 -0.0723877 0.14936808 0.21892 -0.07045622 -0.77408177 0.014984415 -0.4256095
-0.14896904 0.052993838 0.8550726 -0.39012426 -0.010158947 0.18911636 0.15648799 -0.33265868
-0.027195476 -0.09466115 0.11239513 -0.14116031 -0.34426707 -0.07817149 0.06943003 -0.20706981
-0.10271691 0.3423348 -0.41018325 -0.21701922 -0.22603713 -0.08123915 -0.17999002 0.19893533

context_transformer_0/kq_shared_bottleneck/norm/mul;context_transformer_0/kq_shared_bottleneck/norm/add;context_transformer_0/attention/key/einsum/Einsum;context_transformer_0/attention/key/add;context_transformer_0/attention/value/einsum/Einsum;context_transformer_0/attention/key/add/ReadVariableOp/resource f4 [32]
00000000: f0b0 713e 1d11 9abe 3c31 003e 93ad 133e
00000010: 88d4 1fbe 0e66 863e 6a76 773e f202 fd3d
00000020: 74b0 063e f6c6 593e 04a5 4a3e 6238 333e
00000030: 12c9 623e bb74 793d 10c9 abbd 6b1d 6fbe
00000040: 979d 883d 63dd 4bbe d67f 07bd 4d56 12be
00000050: 9eb7 8bbd ba29 8ebe 3f2a a7bd 28cf 95bd
00000060: 4429 0abe 2cbb 66be 11b3 1d3e f664 cebd
00000070: 157b b43d 335a 5ebe 524e 85be 4a03 813d
0.23602653 -0.3009118 0.12518781 0.14421682 -0.15608418 0.26249737 0.24166265 0.123540774
0.13153249 0.21267304 0.19789511 0.17501977 0.22147015 0.06090234 -0.08387959 -0.23351066
0.06670683 -0.19908671 -0.0330809 -0.14290734 -0.068221316 -0.2776621 -0.08162355 -0.073149025
-0.13492304 -0.22532338 0.1540034 -0.100778505 0.088125385 -0.21714096 -0.26036316 0.062994555

context_transformer_0/kq_shared_bottleneck/norm/mul;context_transformer_0/kq_shared_bottleneck/norm/add;context_transformer_0/attention/key/einsum/Einsum;context_transformer_0/attention/key/add;context_transformer_0/attention/value/einsum/Einsum;context_transformer_0/attention/key/add/ReadVariableOp/resource1 f4 [32, 32]
00000000: 3299 3f3e 2a5c d6be 052c 26be 0d71 253f
00000010: 6ff0 2b3f dc93 303e 68f8 47be 3d25 8d3e
00000020: 419c 873e 310a b13d 9cc0 8a3e 501e 99be
00000030: 64f1 983e d5e2 aa3b f2a7 efbe 285a 133e
00000040: 5e66 393e ce9c 023f d4b0 b03e 04a5 33be
00000050: 79b4 8c3e df8f 753e 8921 193f a677 aabc
00000060: e92f 06be 1b25 afbe ce7a c3bd a165 ad3e
00000070: 302f d3bc a494 623e 657c 10bd 71c0 09be
00000080: 89a9 9a3d 448d fe3e 8954 9dbe 4983 533e
00000090: 9763 92be 7921 443e 28ba de3e 2475 80be
000000a0: 9a04 b2bd ee33 d03e f839 59be e85e 793e
000000b0: 6b79 a1bd 3c43 c23d dc07 06bd 2bcb 08be
000000c0: 8ce3 e0bd adba 843e 1a19 01bf 1a00 4dbe
000000d0: 7aa7 0abe 3d0d fd3d 5afd 34bd 1901 00bd
000000e0: 689a 353d 5d92 24bb d443 963e 72e9 c63b
000000f0: 818c a3be 2b8a 763e b0f8 f03e 8e3e 5cbc
00000100: db7d ce3d 9617 c53c 0168 cb3e 7c16 b03e
00000110: 61dd 99bd f6f8 a8bd c7a3 92bb ff99 d73e
00000120: effd 823e adf0 e33d 2f03 803e eec7 a3be
00000130: 146c 5e3e 324d 753d c4cb a1be 9d03 673e
00000140: bcc0 75be 1278 09be 6120 4cbd db14 583e
00000150: 783b 103e f786 95be f095 193e e9f9 823e
00000160: 63ea 783e 46fa 19be b816 89bd 986d b8be
00000170: 280b 943d 1782 623e 7f1f 15be aa83 4fbe
00000180: 0297 a63d a2b4 f6bd 3e8c a53e 7b24 c03e
00000190: c608 813d 235d 4abd 822c 3dbd 3033 b63e
000001a0: bd57 cd3e e196 3d3e afd7 7d3e 5420 b2be
000001b0: b3b7 8e3e ad8a 54bd da6f 8bbe 3780 5e3e
000001c0: 2021 77bd c9ef 91bc 7a1b fd3d 966f f9bc
000001d0: 7c38 f43d 5438 83bc ae6e 1e3e 5e0f 3d3e
000001e0: 68ba 94bd 8000 50be e964 853d 4e9b 8ebe
000001f0: 7fc8 a1bc 9641 533e a78b a2bd 83fa 81be
00000200: 1461 b8bc 6b31 823d 5a1c 143e 3d5d 953d
00000210: 4fee 973d 81dc eebd 9ff4 883e b1bb b1be
00000220: 0de7 76be e625 84be 45f0 8dbe f7d9 293e
00000230: 7d07 6bbe eecf 9bbe 5761 833e 3e6d ce3d
00000240: 120f c6bd 6c32 a53e 2674 39be c647 2cbd
00000250: 3f87 55be 75ca d23e 29a9 a1be 28b7 d53c
00000260: da31 6f3d 97cd 4d3d c0aa c23e 77f1 943e
00000270: 00a6 f3be e69a 333d 39a8 9e3e bedd a53d
00000280: a82e 373b 6e0c fdbd f8d4 213e 3f90 87bd
00000290: de44 103e 4e0c 40be 768f f7bd 2d68 963d
000002a0: b3a3 c63e dfa7 523e 390e 433e 3420 90be
000002b0: 817e a93e 1f7b cdbe 2a67 993d a995 f23d
000002c0: 7f02 a23e a98b 68be 4508 1d3f f2c2 00bf
000002d0: fd65 dfbc 0eec 893e f27e 13bd 246b c5be
000002e0: 48d3 40bf 4401 eb3c ba56 6b3c 056c b9be
000002f0: 26b1 96bd 19ae babe a4b0 7bbe dea2 03be
00000300: 715a 9dbd 42b3 ccbe 8687 0e3f 6d46 eebd
00000310: ff78 f43d f940 a1be 4aa6 98be 8236 a23e
00000320: a34b 303e f589 0bbf 3748 ec3d a3db 96be
00000330: d9ea 343d 798a f1bd fc26 943d 5989 613e
00000340: 8365 c2bd 7941 d0be fae8 7f3e 3a7b aa3e
00000350: a862 0c3e 57a7 e9bd 80bf 02be 8290 8b3e
00000360: c679 353e 49f9 75bd 379c 29be 65cf cbbd
00000370: 9a40 663e 2376 2cbe ebb2 fabe 0f23 adbd
00000380: 9591 7c3d 094e 9cbc 31c1 053f 2441 8e3e
00000390: 1129 81bd 4d45 43be d59c 2fbd dfb4 c93e
000003a0: 5e13 883e dc90 a6bd ec14 4f3e 0cbe bcbe
000003b0: 092e 1a3e 6e3a e9bd 8692 19be dc27 913e
000003c0: c31c a1be 19ce 60be 7fc5 723c 5782 763e
000003d0: 5595 9e3d e543 58be eaaa 0fbd 1798 a63e
000003e0: 8592 5c3e d67a 08be 1aa1 f53c 88d9 bdbe
000003f0: e06d 403d 364f 293e f00f 23be c685 3dbe
0.18710783 -0.4186719 -0.1622773 0.64625627 0.6716375 0.17243904 -0.19528353 0.27567473
0.264864 0.08644522 0.27100074 -0.2990594 0.29871666 0.0052150288 -0.4680782 0.1438986
0.18105456 0.51020515 0.3450991 -0.17543417 0.2748144 0.23980664 0.59816796 -0.020809006
-0.13104214 -0.34207997 -0.095449075 0.338666 -0.025779337 0.22127014 -0.035274882 -0.13452317
0.075518675 0.49717152 -0.30728558 0.2065555 -0.28591606 0.19153394 0.435014 -0.2508937
-0.08692284 0.4066462 -0.2121352 0.2435261 -0.07884487 0.0948548 -0.03272234 -0.13358752
-0.10980901 0.25923672 -0.50428927 -0.2001957 -0.1354045 0.123560406 -0.044186927 -0.031251047
0.044336706 -0.0025111653 0.29348624 0.0060703093 -0.31943133 0.24076144 0.47064734 -0.013442649
0.10082599 0.024059098 0.39727786 0.34392154 -0.07512928 -0.082506105 -0.00447509 0.42109677
0.2558436 0.1112989 0.2500243 -0.31988472 0.21720916 0.059888072 -0.31600773 0.22559972
-0.23999304 -0.1342471 -0.049835566 0.21101706 0.14085186 -0.29204533 0.14998603 0.2558129
0.24308161 -0.15036878 -0.066937864 -0.36021113 0.072286904 0.22119938 -0.14562796 -0.2026507
0.08134271 -0.12046172 0.3233356 0.37527832 0.063005015 -0.04940523 -0.046185024 0.35585928
0.40106001 0.18514587 0.24789308 -0.3479029 0.27874526 -0.051890064 -0.27233773 0.21728598
-0.060334325 -0.017814534 0.12358756 -0.030448716 0.11924836 -0.01601807 0.15471908 0.18462893
-0.07262117 -0.2031269 0.06513388 -0.27852863 -0.019748924 0.20630488 -0.07936793 -0.25386438
-0.022507228 0.06357082 0.1446394 0.072931744 0.07418501 -0.116631515 0.2674913 -0.3471351
-0.24111576 -0.25810164 -0.27722374 0.16587053 -0.22952075 -0.30432075 0.25660202 0.1007943
-0.09670843 0.3226503 -0.18110713 -0.042060636 -0.20852374 0.41170087 -0.3157437 0.026088312
0.05839715 0.050244894 0.38020897 0.29090473 -0.47587585 0.043848895 0.3098772 0.080989346
0.0027951393 -0.123558864 0.15803897 -0.0661931 0.14088771 -0.18754694 -0.1208791 0.07344089
0.38796768 0.2057185 0.19048394 -0.2814957 0.33104327 -0.40132996 0.0749038 0.11844952
0.3164253 -0.22709526 0.61340743 -0.5029746 -0.027270311 0.26937908 -0.036009736 -0.38558304
-0.7532239 0.028687127 0.014363939 -0.36215225 -0.07358007 -0.3646095 -0.24579102 -0.12855098
-0.07683266 -0.39980513 0.5567554 -0.116345264 0.11937141 -0.31494883 -0.29814368 0.3168221
0.17216353 -0.5450738 0.115372114 -0.29464445 0.04416928 -0.1179399 0.07233998 0.2202505
-0.09492018 -0.40674952 0.24991217 0.3329714 0.1370951 -0.11408871 -0.12768364 0.27258688
0.17722234 -0.06005219 -0.16563497 -0.09951667 0.22485581 -0.1684194 -0.4896463 -0.084539525
0.061662275 -0.019080179 0.5224791 0.27784073 -0.06306661 -0.19069405 -0.042874176 0.39395806
0.26577276 -0.081330985 0.20222825 -0.36863744 0.15056624 -0.11388098 -0.149973 0.28350723
-0.31467256 -0.2195362 0.014817595 0.24073158 0.077433266 -0.2111965 -0.035075106 0.3253791
0.21540268 -0.13328108 0.029984046 -0.37080026 0.046979785 0.16534123 -0.15924048 -0.18508062

context_transformer_0/kq_shared_bottleneck/norm/mul;context_transformer_0/kq_shared_bottleneck/norm/add;context_transformer_0/attention/query/einsum/Einsum;context_transformer_0/attention/query/add;context_transformer_0/attention/value/einsum/Einsum;context_transformer_0/attention/query/add/ReadVariableOp/resource;context_transformer_0/attention/Mul;context_transformer_0/attention/Mul/y f4 [32]
00000000: 68a9 81be e75b 1d3e a53c 7ebe e825 61be
00000010: bf32 143e 7542 4bbd c0c8 36be db71 73be
00000020: 92c3 5cbe 6876 4ebe b098 12be b063 05be
00000030: c154 8ebd ed4c e4bd 6535 a33d f499 263e
00000040: 497d d53c 9233 0e3d 35da 24be be6e d9bc
00000050: e823 f3bd fbcc 22be ffc1 5ebe 5367 ba3c
00000060: 288b 3b3e 716e 6cbb 64ac 1ebe 4fc4 98bd
00000070: aebc 31be 45c0 dbbd 9a4e 7abd 4751 6e3e
-0.2532456 0.15367089 -0.24827822 -0.21987116 0.14472483 -0.049623925 -0.17850018 -0.23773901
-0.21558979 -0.20162356 -0.14316058 -0.13026309 -0.06949759 -0.11147485 0.079691686 0.16269666
0.026060717 0.03471715 -0.16098864 -0.026542064 -0.11872083 -0.15898506 -0.21753691 0.022754347
0.18314803 -0.003607657 -0.1549545 -0.07459318 -0.17357132 -0.10730032 -0.061110117 0.23273192

context_transformer_0/kq_shared_bottleneck/norm/mul;context_transformer_0/kq_shared_bottleneck/norm/add;context_transformer_0/attention/query/einsum/Einsum;context_transformer_0/attention/query/add;context_transformer_0/attention/value/einsum/Einsum;context_transformer_0/attention/query/add/ReadVariableOp/resource;context_transformer_0/attention/Mul;context_transformer_0/attention/Mul/y1 f4 [32, 32]
00000000: 9ae5 ec3d d7c5 04bd 4edb 2ebe 1664 0ebd
00000010: fcdc 053e db05 d03d 1e36 03be e85e bd3d
00000020: 9be3 9e3d a535 4e3d 9b29 01bd 92d8 703d
00000030: ce74 84bd d9df 073e e228 243d bcbc 6f3b
00000040: 6e54 773e a873 4e3e abed e53d d576 06be
00000050: 589a 543d 9762 023e 0e20 03bd badc d73b
00000060: 3e1f 1cbd 444e 07be a9b4 943d 29d6 193e
00000070: 811c 1a3d f1d6 493e f21b ed3b 5ce0 89bd
00000080: 0d18 023d 98f4 cdbd e8ed 3d3e 9737 653d
00000090: cfb1 02bd a878 a73c 9199 773d 12cb 46bd
000000a0: 7d1b 0f3d 929c 5b3d cbcb 2f3d 1adc e4bd
000000b0: c02d 333d b31b f9bd b057 a7bd 815d aa3d
000000c0: fc7d 09bd 10f8 3f3d 8698 3ebe 9c15 04bd
000000d0: 91ba 05bb bd92 153d e443 833c d696 123e
000000e0: b517 babd 2cc1 e0b9 0143 0dbd 34df a8bc
000000f0: ab04 de3c 601a 4b3e fb79 033e 141f f7bd
00000100: 461e c33d fbdf b53d 2b38 eabd f6f3 ddbc
00000110: be17 4bbe 2ce1 613b 4453 fb3c 46c1 843d
00000120: 7d1a 743d 522b ac3d 2c70 05bd 5317 8c3d
00000130: 2618 1cbd 7717 913c f608 5e3d a303 f8bc
00000140: 53a6 02be 50f6 6fbd 2217 16be 967d a63d
00000150: b23f 343d 31f0 17bd 8454 b2bd df92 09bc
00000160: 31fc f03d 965b 90bd 139b 483d 5785 9fbd
00000170: abfe 35bd b2d0 883d fc3c a4bd a2e9 8ebd
00000180: 4968 023e cf2c e23d 21a3 06be 9d4f aabc
00000190: 48e6 a9bd 025a febc 34b2 ff3c 30cc 793d
000001a0: 3edb 863d 8a9d 923d fb94 d0bc 7ffb 2f3d
000001b0: 09c0 04bd b53b a6ba e879 233d cdde 4c3a
000001c0: 19af fe3c cd9e 1c3b 48d5 82bd 910a 47bd
000001d0: 41ac 833c d87a cb3c 85b3 7dbd 61ac f63b
000001e0: 09f0 183d 7cbb afbd 7e37 9e3d 8ed0 6ebd
000001f0: 1d9b a4bd 0cc7 733d dbb4 f5bc a318 b9bd
00000200: 4c2d 86bd 8bdb f5bc 5a8a 523e 9f15 afbc
00000210: 97d0 7d3c ed75 0c3d 068e 3d3d adb3 c6bd
00000220: 7d78 c9bd 079a ab3c 97bb cc3c 031a c5bd
00000230: d292 ab3c 9a3a 03be b14c 2cbd 954c 003e
00000240: f46b bd3c f679 093e db68 173d 49f4 453c
00000250: 6b21 4fbd ec93 143e e843 23bd 2eaf 253d
00000260: 810b 2dbd 412a 1b3d b769 713d 39f4 bb3d
00000270: efda b6bd 772d 0e3d 5491 9d3d d920 563b
00000280: 041f a63d 4228 fa3d af78 84bd 5102 7fbd
00000290: 8944 ce3d 16d9 7dbd 6a0a 28bb 46b9 203d
000002a0: 190a e73d b589 4ebc 2cd3 a43c 7cb2 c938
000002b0: 3f6b ed3c b87e 203c 486a 1d3d 11e6 d5bc
000002c0: 5f95 663e 1d5e cfbd 1d4a a53e db60 8bbe
000002d0: c379 b8bd dfc9 a33d 83c9 85bc 2c1f 94bd
000002e0: 3b1b 39be 3ba0 3dbd b163 b13d a489 4bbe
000002f0: fc6c c3bd 9d66 17be 020d a43d f44a 5d3a
00000300: 5b71 75bd 9650 013e f5b6 19be bf33 75bd
00000310: d01f dabd 57a1 13bd d4c6 a43c 8d50 c63c
00000320: 2500 60bd a497 e9bb 83b0 17bd 0fba d93d
00000330: 6a64 7ebd c7b5 2b3d 1d8e af3d f4f5 5abd
00000340: 5b81 90bd 91dc 01bd 2751 2c3d 7564 f13d
00000350: 7741 71bb abbb 1dbd 42c1 99bd 7959 0dbe
00000360: 690f 0d3e 885b 0a3d 1831 803d 79da 833c
00000370: 7bc3 d1bd d527 58be b34e 18be 7092 c03d
00000380: 0b8f 733d 4da3 0e3e 6415 d7bd bc91 10bd
00000390: a31b 50be e658 7cbb 1a64 823d 92ed 1c3d
000003a0: 5af1 243c eab9 c73d 3e8b 15bd c8dd 5f3d
000003b0: f25f 1cbd 4a28 a3bc 05b0 863d b1a2 3cbc
000003c0: b22b 0dbe 0dee 65bd b6c9 ddbd 17ce b13d
000003d0: 6404 973c 405b b9bc ffa3 f1bd 9a44 babc
000003e0: 606b 013e cad2 42bd a208 bb3d ed25 b0bd
000003f0: 1769 dabd 3251 113c ebb6 d9bd a8cb 1fbd
0.115672305 -0.032415237 -0.17075846 -0.03476342 0.1307258 0.10157367 -0.12813613 0.092466176
0.07758256 0.05034413 -0.03153382 0.058800288 -0.06467591 0.13268985 0.04007805 0.0036581
0.24153301 0.20161307 0.11226972 -0.13131268 0.051905006 0.12732922 -0.03201299 0.006587592
-0.038115732 -0.1321345 0.07261021 0.15023102 0.03762484 0.197109 0.0072359974 -0.06732246
0.031761218 -0.10056418 0.18547785 0.055961218 -0.031907853 0.020443276 0.060449187 -0.048533507
0.034938324 0.053616114 0.04291896 -0.111747935 0.043744802 -0.12163486 -0.08171022 0.08318616
-0.033567414 0.04686743 -0.1861287 -0.03224717 -0.0020405392 0.036516894 0.016023584 0.14315352
-0.09086553 -0.00042868534 -0.034487728 -0.020614244 0.027101835 0.1983428 0.128395 -0.120664746
0.095272586 0.088806115 -0.114364944 -0.027093869 -0.19833276 0.0034466488 0.030679353 0.064821765
0.059595574 0.084067 -0.03257768 0.06840386 -0.038108967 0.017711384 0.054207765 -0.030275172
-0.1275876 -0.05858451 -0.14657262 0.08129422 0.044006057 -0.0370943 -0.08707526 -0.008396833
0.11766852 -0.07048719 0.048976015 -0.077891044 -0.044432323 0.066804305 -0.08019444 -0.06978156
0.12735094 0.11043703 -0.13148166 -0.020789916 -0.08295876 -0.031048778 0.031212904 0.060985744
0.06584786 0.071589544 -0.025461664 0.042964455 -0.0324097 -0.0012682589 0.03991118 0.00078151823
0.031089352 0.0023898364 -0.063883364 -0.04859406 0.016073348 0.02483885 -0.06193878 0.0075278734
0.03733829 -0.08580682 0.07725428 -0.058304362 -0.08037398 0.059515998 -0.029993465 -0.09037902
-0.065516084 -0.030011913 0.2056059 -0.021372614 0.015491626 0.03429215 0.046278022 -0.09702239
-0.098374344 0.02094747 0.024991794 -0.09624102 0.020944033 -0.12815323 -0.042065326 0.12529214
0.023122765 0.1342543 0.036965232 0.012082168 -0.05056898 0.14509553 -0.039859682 0.040450267
-0.0422473 0.037882093 0.05893871 0.09177441 -0.08928477 0.034711327 0.07693735 0.0032673387
0.081113845 0.1221471 -0.06468331 -0.06225807 0.10071666 -0.061974607 -0.0025640973 0.03923919
0.11281223 -0.012606074 0.020120226 9.617672e-05 0.028981803 0.009795837 0.038431436 -0.02611068
0.22517918 -0.101253726 0.32283106 -0.27222332 -0.09007599 0.07997488 -0.01633144 -0.07232508
-0.18076794 -0.046295386 0.08661593 -0.19876724 -0.095422715 -0.14785238 0.080102935 0.000844165
-0.059922557 0.12628397 -0.15011199 -0.059863802 -0.10650599 -0.036042538 0.02011434 0.024208331
-0.054687638 -0.0071286727 -0.03703357 0.10631191 -0.06210748 0.041921403 0.08572028 -0.053457215
-0.070559226 -0.03170449 0.04206958 0.11786739 -0.0036812702 -0.038509052 -0.07507564 -0.13803662
0.1377541 0.033778697 0.06259364 0.016095387 -0.10242363 -0.21108945 -0.14873771 0.09402931
0.05946259 0.13929482 -0.10502127 -0.035295233 -0.20323043 -0.0038505136 0.06366749 0.038312502
0.010067308 0.09752257 -0.036509745 0.054654866 -0.038177438 -0.019916672 0.06576542 -0.011513398
-0.137862 -0.056135226 -0.10829489 0.08681887 0.01843471 -0.02262652 -0.11798858 -0.02273779
0.12638617 -0.047564305 0.09132506 -0.08600984 -0.106645755 0.008869456 -0.10630592 -0.03901258

context_transformer_0/ffn_layer_0/intermediate_dense/einsum/Einsum;context_transformer_0/ffn_layer_0/intermediate_dense/Relu;context_transformer_0/ffn_layer_0/intermediate_dense/add f4 [32]
00000000: e549 36be adef 5dbe 26c5 adbe 018d 30be
00000010: 109b 9a3d 1a1e 41be 2c43 07be 0fc2 adbe
00000020: 9b07 a5be 33e6 abbd 2a53 a8be 560a f3bd
00000030: 743a 6bbe 9840 8ebe 1ab4 83be c1f4 a9be
00000040: 0290 bebe 6259 73be ed15 a5be e74c 94be
00000050: 7ab6 8ebe eac5 6abe 2aa9 b5be 88f9 77be
00000060: 35cd c3be a1b5 51be 6e34 d9bd 655d 9dbe
00000070: 4ccb d7bd a1b2 1dbe d564 4cbe c42a 67be
-0.17801626 -0.2167346 -0.33939475 -0.17241289 0.07549107 -0.18859139 -0.13209218 -0.33937117
-0.32232365 -0.083935164 -0.3287595 -0.11867206 -0.22971517 -0.27783656 -0.25723344 -0.33194545
-0.37219244 -0.23764566 -0.3224329 -0.28964922 -0.27873594 -0.2292706 -0.35480624 -0.24216282
-0.38242498 -0.20479442 -0.10605703 -0.30735317 -0.10536823 -0.15400173 -0.1996034 -0.22574908

context_transformer_0/attention/norm/mul;context_transformer_0/attention/norm/add;context_transformer_0/ffn_layer_0/intermediate_dense/einsum/Einsum;context_transformer_0/ffn_layer_0/intermediate_dense/Relu;context_transformer_0/ffn_layer_0/intermediate_dense/add f4 [32, 32]
00000000: b770 fabd 5ba3 993d 9748 783d eb20 bebd
00000010: 92ac 33bd c280 11be 5e99 be3c 48eb f3bc
00000020: 6273 423d c00e 983d 4a75 293e 703b dfbc
00000030: 3ab3 0c3e 8642 47be cafa 9e3d bf25 abbd
00000040: 6ff9 1e3d 5c8a 293e e010 1f3d 0be1 773d
00000050: 7b04 6a3d d08a 7a3d dca2 393e 4830 753d
00000060: fdfe 05be 4f6e d8bd e2d2 b33b cc5a e2bd
00000070: 1883 18ba 4905 e53d 8734 053d da3e 043d
00000080: 2525 e03a d0e0 313e 469e 173e 1b80 083d
00000090: 01e4 b3bc 71ff d8be 19a9 e93d d1b1 8bbe
000000a0: 6808 6dbd 0885 bdbd 11a6 0bbf 71ce 223d
000000b0: 8aea b1be 2ea5 2ebe 566c 79bc 180f 3abe
000000c0: 5f49 e63d 2297 7bbe 4c19 2a3e 04cc c8be
000000d0: e8eb f33d 7377 723e 57e4 403d 065a ea3d
000000e0: 581b 9fbe 5125 0cbe 9d3d 5e3e c889 80bd
000000f0: f1ad 8f3e 8624 67be 02da 1abe 5244 83be
00000100: 62da a5bd 90b2 cdbc cabf 9bbc 9940 5dbd
00000110: 8e25 973c 5024 95be 46a5 bebd 1b4f 603c
00000120: a27a c1bc ceb5 1fbe 14d8 25be 7634 57bd
00000130: 5999 c63c f163 473d 6644 2f3e 57fe e6bc
00000140: f551 c13d 367a 19be 068b ab3e 3502 7e3e
00000150: 2339 8a3a d626 3c3e 954a af3c bdd6 13bc
00000160: eaa3 a0bd c1a6 02be 1090 ad3d f57b e0bc
00000170: cffd 7039 7308 bcbe 4b7c 82be 8c0d 6abe
00000180: 5174 3c3e f8af 803c 2adf 08be a0b7 b03c
00000190: f2e5 14bd 36ae 883b d6c7 733d c955 863a
000001a0: f773 2d3e 8e47 12be 533c 52bc 91de 6dbe
000001b0: 367e 97bc 6594 bfbd 5829 5abe 3f54 40be
000001c0: 7edf 783c c53c 8d3d 8b23 0d3c d606 11be
000001d0: ab97 90bd 48d5 ea3d 1c70 65bd a91c 29be
000001e0: 8ab8 6ebd 430f 85be 8c24 debd be74 4b3e
000001f0: 1358 a03e 74c1 1bbe c460 323d 8589 a3bd
00000200: 10bd 463e 5108 11bd 9b41 34bd 25c9 54be
00000210: 95b1 803d 94e0 853c a399 debc ee09 ba3c
00000220: 1fab 3b3d 1b79 6cbe d0e6 eb3d ae26 82be
00000230: e2e3 f1bd ea74 a43e 410e 86be a197 403d
00000240: 3e96 0d3e 7b9c 2b3e ab12 4a3c ca7e 38be
00000250: 7720 f8be b979 d23d cd3c c0b7 9c7c a63d
00000260: 1f0e 8ebe 3b6d 90be 60d9 673e 7ea3 823e
00000270: f8d8 8c3c 3486 393e d472 debe 86d6 0f3e
00000280: 35cb 80be 4991 74be 0f88 453d 4b1c e7be
00000290: e091 1dbe 810e e63e f073 903e 0beb cd3d
000002a0: 8eaf b5bd f1b0 63be c931 083d a870 63bd
000002b0: 51b3 af3e b025 29be e3b5 7f3e b9ff e43a
000002c0: be93 dcbc 608d cebd 27e1 41be 65c5 a23e
000002d0: 867a a2bd cded 7abd 06fb 223e 3f6e 2bbd
000002e0: bb56 8fbe 24d5 15be 5713 c63e da20 483d
000002f0: 73eb 9e3d 157a 12be e0ae 03be f1f1 bbbe
00000300: 4652 153c c3df 1cbc 4598 c5bd 0ceb 7bbc
00000310: dd04 9a3e fae9 0b3e 38d1 5cbe 28d5 e8bd
00000320: db51 02be 6f23 5abe 7159 ffbd fbac 21be
00000330: 124e ee3d b87b 0f3a 67c5 073d 34e0 c93d
00000340: f5cc 9e3e 0ac3 673e 6865 d1bd 9368 b9bc
00000350: 29c6 fbbe a1a8 23be 90ff 97bd 85bf 9cbe
00000360: a444 ba3d f4c0 2c3e 4585 cf3d 60e0 2ebe
00000370: 7160 9a3e b8fe 91bd 726b 103e ffba fdbd
00000380: 0fa0 f8bd 97b8 d5be 4789 15be 6144 01bd
00000390: d827 af3c d07a acbe 2ffa 03bf 30ff a9bd
000003a0: 2aa4 ca3b e30b 69bd 0b3e 2e3e 1e4d 10be
000003b0: 78e2 ac3e 0d70 86be 651b 473e f9e0 4f3e
000003c0: e677 a2bc fe74 c43e 8d25 733e 26cd aabd
000003d0: a75a bcbd a985 193d 6c33 99bc d50c 20be
000003e0: c30d 3dbd 5184 663d 0abf 153d fc33 37be
000003f0: f9b6 793c 64bb 9dbe ae1c 9ebe 7397 9c3d
-0.1222853 0.07501861 0.060616102 -0.09283622 -0.043865748 -0.14209273 0.02326649 -0.029775277
0.04747332 0.07424688 0.16548648 -0.027250022 0.13740245 -0.1945897 0.07762678 -0.08356809
0.038812097 0.16556686 0.038834453 0.060517352 0.05713318 0.06116754 0.18128532 0.059860498
-0.13085552 -0.10567915 0.0054877857 -0.110524744 -0.00058178743 0.11182649 0.032520797 0.032286502
0.0017100914 0.17370915 0.1480647 0.033325296 -0.021959307 -0.42382386 0.11409206 -0.272841
-0.057869345 -0.09253889 -0.5455027 0.03974766 -0.34749252 -0.17055199 -0.015223583 -0.1816982
0.11244463 -0.24569371 0.16611212 -0.39218152 0.1191023 0.23678379 0.04709276 0.11442952
-0.3107555 -0.1368611 0.21703191 -0.0627628 0.28062394 -0.22572526 -0.15122226 -0.25638062
-0.08098294 -0.02510956 -0.01901235 -0.054016683 0.018450525 -0.29129267 -0.09308867 0.013690735
-0.023618046 -0.15596697 -0.16195709 -0.052540265 0.024243044 0.048679296 0.17115936 -0.02819745
0.0943946 -0.14988026 0.33504504 0.2480553 0.0010545593 0.1837419 0.021397868 -0.009023366
-0.07843764 -0.12758924 0.08474743 -0.027402857 0.00022982735 -0.36725196 -0.25485453 -0.2285673
0.18403746 0.015708908 -0.1336638 0.021571934 -0.036352105 0.004171158 0.05951675 0.0010248955
0.16938768 -0.14285108 -0.012831765 -0.23229434 -0.0184928 -0.09354476 -0.21304834 -0.18782137
0.015190003 0.068963565 0.008614431 -0.14162764 -0.07060178 0.114664614 -0.05601512 -0.16514839
-0.05828146 -0.25988206 -0.108468145 0.19868752 0.31317195 -0.15210515 0.043549314 -0.07985214
0.19408059 -0.03540832 -0.04400788 -0.20779856 0.06283871 0.016342439 -0.02717287 0.022709813
0.04581749 -0.23093073 0.11518633 -0.25420135 -0.11811043 0.32120448 -0.2618275 0.047019605
0.13826844 0.16758911 0.012333552 -0.18017116 -0.4846227 0.10277123 -2.2916496e-05 0.08129236
-0.2774515 -0.28208336 0.22641516 0.2551536 0.017193303 0.181176 -0.43446982 0.14046678
-0.25155035 -0.23883547 0.04822546 -0.45138773 -0.15387678 0.4493294 0.28213453 0.100545965
-0.08871375 -0.22235467 0.033250604 -0.05552736 0.34316495 -0.16518283 0.24971728 0.0017471231
-0.026925918 -0.10085559 -0.18933545 0.31791225 -0.07933526 -0.06126194 0.1591607 -0.041853186
-0.27995858 -0.14632088 0.3868663 0.048859455 0.07759752 -0.14304383 -0.12859678 -0.36708024
0.009113854 -0.009574833 -0.09648184 -0.015375864 0.30081835 0.13663474 -0.21564186 -0.11368781
-0.12726538 -0.2130258 -0.124682315 -0.15788643 0.116359845 0.00054734526 0.033147242 0.098572165
0.31015745 0.22632995 -0.1022442 -0.022632873 -0.49174622 -0.15982296 -0.074217916 -0.30614868
0.090951234 0.16870481 0.10132841 -0.1707778 0.30151704 -0.07128662 0.14103487 -0.12389182
-0.12139904 -0.41742393 -0.14603148 -0.03155935 0.021381304 -0.33687449 -0.51553625 -0.08300626
0.0061841207 -0.0568961 0.17015855 -0.14091918 0.33766532 -0.26257363 0.19444044 0.20300664
-0.019832563 0.38370508 0.23744793 -0.0833991 -0.09196978 0.037480984 -0.018701278 -0.15629895
-0.046155702 0.05627853 0.036559142 -0.17890924 0.015241378 -0.3080703 -0.30881256 0.07646074

context_transformer_0/ffn_layer_1/intermediate_dense/einsum/Einsum;context_transformer_0/ffn_layer_1/intermediate_dense/Relu;context_transformer_0/ffn_layer_1/intermediate_dense/add f4 [32]
00000000: bea5 3abe ddf4 b7be 2a7d 12be d00b c3be
00000010: bc78 733d 2806 02be 758c 1dbe 1083 57be
00000020: 29d9 91be 3d24 54be f8d6 fdbd ec2b e4bd
00000030: 46d1 92bc fc25 36be 4a4b 6fbe 9453 39ba
00000040: 40bb 0bbe f870 00be c58f c1be 9a68 87be
00000050: cdcd ab3b 157e 7fbe 57f6 b5be df8c f7bd
00000060: fe11 d93c d441 e2bd bfbd 25be 4b8e b2be
00000070: de15 76be 0390 f7be 756c 68be 0993 62be
-0.18227288 -0.35929003 -0.14305559 -0.3809495 0.059441313 -0.12697661 -0.15385611 -0.2104609
-0.28485993 -0.20716949 -0.12394518 -0.1114119 -0.017922055 -0.17787927 -0.23368564 -0.0007069644
-0.13645649 -0.12543094 -0.37805 -0.26446992 0.005243039 -0.2495044 -0.35539505 -0.12087416
0.026497837 -0.11047712 -0.16185664 -0.34874186 -0.24031779 -0.4835206 -0.22697623 -0.22126402

context_transformer_0/ffn_layer_0/norm/mul;context_transformer_0/ffn_layer_0/norm/add;context_transformer_0/ffn_layer_1/intermediate_dense/einsum/Einsum;context_transformer_0/ffn_layer_1/intermediate_dense/Relu;context_transformer_0/ffn_layer_1/intermediate_dense/add f4 [32, 32]
00000000: 5155 a43d 585a f93e adff a8bd 5229 d4bc
00000010: 6a8a c63c 4c82 33bc b112 79bd 00d6 63bd
00000020: 8397 b03d 0720 023d e07e 3dbe 8653 01bf
00000030: a960 803e a0b6 663e eb84 4abd b8c6 9f3d
00000040: 1708 b93e 606f d7bd 0af6 4f3e 9e48 0bbe
00000050: d08d 20be 7f6e d63d d149 aa3d 3593 973d
00000060: 7c77 d2bd 7fde e2bd aa31 123d 68c7 383e
00000070: 9303 06bd 83e7 9bbe 3f97 483e 8514 453e
00000080: acaf 903d 8b3d ac3d ee21 cebc 45b5 fd3d
00000090: 11c5 2abd b568 723e 4756 283d 7161 413d
000000a0: b313 703d 27a2 aa3e cd5d 1e3e ff6d acbd
000000b0: b5bb ef3d cbf1 aa3d 7859 28bd be4b c63e
000000c0: 8f75 aabd dd0b da3d ee15 853e 6ea2 1bbe
000000d0: ad1f be3e 4285 6d3e ab16 3ebe d550 2d3d
000000e0: 0d5d 25bd 80ac 2abe 8441 8abd 480c edbc
000000f0: 8b3f cb3c b5eb 6abe 9ed2 4abe 2f23 7d3e
00000100: c07e 713d bc86 94bd 4c32 6ebd 7934 003e
00000110: 2b52 d03c 62e4 16bd e314 bf3d ee48 80bb
00000120: 5567 b6bc 6739 98bd 5c15 283d e048 37bb
00000130: 1fec fcbd 4946 7ebc 6eaf 5c3d 421d 1a3e
00000140: ec52 893d d4d8 36be 7c7b 81bd 42c8 513d
00000150: e137 693c 72c1 543d f4f6 84bd 10ec 28be
00000160: 1a98 b5bd 108d 9cbb 1e5c 883d 7574 70bc
00000170: 9e2d 193d 05ec 79bd fab8 253e cba6 24bd
00000180: 1e18 46bd 4e5c e43d 75ec 8a3c a154 9ebd
00000190: 88a8 8a3c b797 7a3e 9970 d2bd 881b 393e
000001a0: 7acc 043e 88c4 b7bd 5963 d4be 563f 60be
000001b0: 94ac bb3d 9905 ef3c 6852 123d 9ddd 7cbe
000001c0: fede 5ebe abd9 92be 6759 d5bd 9701 133e
000001d0: 7893 84be 1c9a d73d 90d6 adbc 74b0 923e
000001e0: 2e33 a0be 023b a8bd cd9e b0bc 197f b4bd
000001f0: b68d 623e cfed 75bd dc36 863e f35f 21be
00000200: 1502 453e 6405 b8be 45e6 a93d 95c4 89bd
00000210: a781 62bd 0071 e0bd 6991 f53c 962d 1b3e
00000220: 71b7 fbbd f43d c03d 478a b73d 4d03 93be
00000230: b484 57be 59d5 e43d c879 e13d 2b26 203e
00000240: 5ff5 4ebe 7321 f33d 05af 513b 1c8d 1ebe
00000250: f330 83be e017 873e 5a96 143e cfb3 8ebc
00000260: a1be 8f3b 0912 083d 3e65 a53e f97b 063e
00000270: 3e7a c3bd d466 943e df4d 76be 5aea c0bd
00000280: ef19 263d 2346 a13c 672b 48be 9478 afbd
00000290: d790 af3d 5f2c 96be 1543 a2ba a61b 223e
000002a0: d0a0 8e3d 19ad 14be 8fa0 91bd ae05 9dbe
000002b0: 3dfd 983d 4127 e6bc 96fa 003e d92d df3c
000002c0: 973c f9bd 3d0f 0c3e 4079 043e 41ae 89be
000002d0: 9a2f 103e 0cb1 443e 0ad7 6f3e 3ca9 de3d
000002e0: 655c 8f3d 9a5e a13e 3586 4f3d ef58 e4bd
000002f0: 19a3 70bd 44bc 14be ce84 133e a1d0 6e3d
00000300: a04d 6cbd 7174 f93e 9e56 a0be 58cc 843e
00000310: 8939 b03d 95a9 1c3e e5a8 343d dd0b db3d
00000320: 1f08 55be 110e d5bd 91cc 31bd d4d7 bdbc
00000330: f249 5a3e 9e95 8dbe 19a6 153e ff21 773d
00000340: d308 903c 2194 043e d9ac 6c3e 20c6 2cbd
00000350: 9f4e 12be 313d e03d 2943 523e d006 b23d
00000360: 9ce8 debe 00f6 433e 5fff 1d3e c6b9 bebd
00000370: 3f3d 9a3d e8b0 6a3e 0e94 b0bd 9fe1 c1bd
00000380: 34b2 5c3d 8443 743d 9fa8 b8be b97a ea3d
00000390: fd44 b4bd 1670 0b3e 9d5e bbbd 4299 b3be
000003a0: 5fb1 51bc 0efb 88bd 79d2 ea3e a843 8e3d
000003b0: 78d7 2c3d faac 23be c520 70be 6549 8b3d
000003c0: e64c ee3d 5fec b23d 2602 9fbb 706f 363e
000003d0: b639 85bc 93c9 5c3e 4c0b dfbd cb9f 86be
000003e0: 0f42 9fbd 87b8 6ebe 4a5f 623d 51bb 703c
000003f0: 6b09 8d3d f5f5 803d a83a 6dbe cfe6 993e
0.08024085 0.4870174 -0.08251891 -0.02589861 0.024235923 -0.010956358 -0.06080884 -0.05562401
0.086226486 0.031768825 -0.1850543 -0.5051807 0.25073746 0.22530603 -0.049443167 0.078015745
0.36138985 -0.1051929 0.203087 -0.1360192 -0.15679097 0.10470294 0.083148606 0.074011244
-0.10276696 -0.11077594 0.035691895 0.18044817 -0.032718252 -0.30450067 0.19588946 0.19246109
0.07064757 0.08410176 -0.025162663 0.1238809 -0.041691843 0.23672755 0.041097905 0.047212068
0.058612537 0.33326837 0.1546547 -0.084194176 0.11705724 0.083468996 -0.04110095 0.38729662
-0.08323204 0.10646794 0.25993294 -0.15198681 0.37133542 0.23195365 -0.18563335 0.042313416
-0.040371943 -0.16667366 -0.06750777 -0.02893652 0.024810573 -0.22941478 -0.19806907 0.24720453
0.05895877 -0.07252261 -0.058153436 0.12520017 0.025429806 -0.036838897 0.09330156 -0.003914944
-0.02226607 -0.07432824 0.041035995 -0.002796702 -0.12349724 -0.015519687 0.05387824 0.15050223
0.06705269 -0.17856151 -0.06322381 0.05121637 0.014234514 0.051942296 -0.06492415 -0.164963
-0.08866902 -0.004777558 0.06658195 -0.014676203 0.03739702 -0.0610161 0.16183844 -0.04019813
-0.048362844 0.11150418 0.016958455 -0.077309854 0.016926065 0.24471937 -0.102753825 0.18076909
0.12968627 -0.08973032 -0.41482046 -0.2189916 0.09163776 0.029177474 0.03572312 -0.24693914
-0.21764752 -0.28681692 -0.10417443 0.14356075 -0.2589376 0.10527441 -0.021220475 0.28650248
-0.31289047 -0.0821438 -0.021560097 -0.088133045 0.22124371 -0.060041245 0.2621373 -0.15759258
0.19239075 -0.35941613 0.082958736 -0.06726948 -0.055299427 -0.10959053 0.029976564 0.15154108
-0.12290848 0.093868166 0.08961921 -0.28713456 -0.21046716 0.11173505 0.11009556 0.1563956
-0.20210789 0.11871614 0.003199519 -0.15483516 -0.25623283 0.26385403 0.1451048 -0.017419724
0.0043867384 0.033220325 0.32303804 0.1313323 -0.095448 0.28984702 -0.24053143 -0.09419699
0.040552076 0.019686764 -0.19547807 -0.0856792 0.08572548 -0.29330727 -0.0012379611 0.1583086
0.06964266 -0.14519157 -0.07110702 -0.30668396 0.07470176 -0.02809489 0.12595591 0.027243542
-0.1216976 0.13677688 0.12936878 -0.26890758 0.14080659 0.19208163 0.23421875 0.10872123
0.07000045 0.31517488 0.0506651 -0.11149775 -0.058749292 -0.14524943 0.1440613 0.058304433
-0.057691216 0.4872165 -0.31316084 0.25937152 0.08604724 0.15299065 0.044106383 0.10695622
-0.20803879 -0.104030736 -0.04340798 -0.023174204 0.2131727 -0.2765321 0.14614142 0.060335156
0.017582333 0.12947132 0.23112811 -0.042181134 -0.14287804 0.10949171 0.20533432 0.08692706
-0.43536842 0.1913681 0.15429448 -0.09312777 0.07531213 0.22919047 -0.08621989 -0.09466862
0.053880885 0.0596347 -0.36066148 0.11449189 -0.08802221 0.13616976 -0.091489054 -0.35077864
-0.012798636 -0.0668851 0.45863703 0.06946498 0.042197675 -0.15983954 -0.2345 0.06801108
0.11635761 0.087364905 -0.004852551 0.17815948 -0.01626287 0.2156127 -0.108908266 -0.26293787
-0.077762716 -0.23312579 0.055266656 0.014693097 0.06886562 0.062969126 -0.23166907 0.30058905

context_transformer_0/ffn_layer_2/intermediate_dense/einsum/Einsum;context_transformer_0/ffn_layer_2/intermediate_dense/Relu;context_transformer_0/ffn_layer_2/intermediate_dense/add f4 [32]
00000000: 8ce4 24be db92 a0be 9303 c0bd ebeb 22be
00000010: 3fe3 65be 0f0e f1bd 192b 53be 2461 80be
00000020: 74da 3cbe de0a b7be fb89 f1bd d0dc 5cbd
00000030: 8843 6fbe b7f0 cabd bb47 b43c 6ec3 b8bd
00000040: 7962 9fbe 51b6 31be d9a3 7bbe c7e7 c9bc
00000050: 63fe c5be dc54 52be f862 e7bd 84a0 18be
00000060: 3248 06be bf91 96be 0165 bbbb cd16 88be
00000070: 8c20 aabd a26c 12bd ed73 adbe c6ca 4abe
-0.16102809 -0.31362042 -0.09375682 -0.15910308 -0.22449969 -0.117702596 -0.20621909 -0.25074112
-0.18442708 -0.35750479 -0.11793896 -0.05392152 -0.23365605 -0.09909194 0.02200686 -0.0902165
-0.31129816 -0.17354704 -0.24574222 -0.024646653 -0.38670644 -0.20540184 -0.11298174 -0.14904982
-0.13113478 -0.2940807 -0.0057188277 -0.26579896 -0.08306989 -0.03574813 -0.33877507 -0.19803914

context_transformer_0/ffn_layer_1/norm/mul;context_transformer_0/ffn_layer_1/norm/add;context_transformer_0/ffn_layer_2/intermediate_dense/einsum/Einsum;context_transformer_0/ffn_layer_2/intermediate_dense/Relu;context_transformer_0/ffn_layer_2/intermediate_dense/add f4 [32, 32]
00000000: f425 3b3e 9783 4dbe 8aa3 6fbe 9c93 363e
00000010: 7146 003d 4d63 01be fa95 47be d15d 093e
00000020: adda 56bd 381b d23c 72f7 8ebd 574a 7bbe
00000030: e0b4 37be 9097 9cbd 1a00 96be 36a1 a23e
00000040: f154 50be dd23 473e dc72 e5bd f964 eebe
00000050: b123 263e bda8 e0bd 7d78 ed3d dd08 46bd
00000060: 3e13 a03d af49 9c3c 5a59 acbe 3eb0 1fbe
00000070: 7f2f 9b3d c7f8 873c 212f 4a3e 8ea7 7dbc
00000080: 1622 7b3d 26b7 9dbb 4154 acbe d411 123e
00000090: 0352 b83d cb0f 3f3e 86eb 57be 2dec acbd
000000a0: d6d2 a33e 10c6 ae3d 116b 4e3e 9adb 913d
000000b0: 83aa 0e3e b1f3 06be 9478 99bd ef7b d33d
000000c0: f4a6 62be 0adf 04be 66e0 173c f44a 473e
000000d0: 5f19 8d3c 4660 cfbc 19ac d4bd ec7a 3ebc
000000e0: 487e b5bd 6f4c 173d c596 5e3d 4263 4c3e
000000f0: 8eb1 14be e5e3 483e b604 85be ec5a 5ebc
00000100: 3708 99bc c3cb 1abd 203d 88bd 58a3 e3bc
00000110: ac7a 0bbe a667 3abe 5264 c4bd a0c1 a93d
00000120: 9f20 393e 435a 3a3c be46 8c3e e232 30bb
00000130: 04ce 9bbe cd4e 73be b3e0 333e c4ab 9b3d
00000140: 3a47 9fbd 86a8 4a3e 4825 01be 73f2 f2bd
00000150: fee6 143d 8ca3 dfbd d5e7 a53d 0364 5fbe
00000160: 0ea2 1ebd 3b9e 96bd 2e69 9a3d 666e 813e
00000170: 3e98 6bbd ecfd 153d 43c1 a33e 8f66 333e
00000180: ca90 233e 2836 89be 3838 b1bb 0775 2b3e
00000190: e550 11be 4089 ebbd f689 09be e2cf b3be
000001a0: 6e22 c9bd f93c 20be d9ca 8d3c d2cc 4fbc
000001b0: 89ed 4abd b7fe 1dbd 26a3 b13e 1dbd ad3d
000001c0: 91d9 af3d 06a1 ce3d 2949 cc3e f31b 57bd
000001d0: 515c 553e 129a 5f3e ebec 8a3d 5a6b 89bd
000001e0: 2696 d0bd be04 cabd cf3a b5be 60b0 1fbe
000001f0: 58a9 743e a921 f83d c9dc 093c 3620 4e3d
00000200: 43bf a8be aea6 2f3e 4571 b23d 7104 0cbe
00000210: 11db 82be 325c 063d 4311 223d dc43 0e3f
00000220: 639b 7c3d c454 993c 45d0 3ebd 80c0 9ebd
00000230: ab70 073e 4451 6fbe eaa3 40bd da7b 34bd
00000240: f5d5 0abd 15b5 bb3d 0a90 f93c df3a 1c3e
00000250: 456e 4a3e 2c19 fdbc b2c6 3b3c 5ad3 743e
00000260: 59a3 a13d d281 c6be d462 d13d e950 283d
00000270: 2490 1ebe e2a7 edbd 57d2 7a3d d149 15be
00000280: d136 81be c67e 413d 8c2f 803e bd0e 2ebd
00000290: 2e87 f83c d2e7 81bd 0b67 333d 9032 533e
000002a0: 9bd2 f53d 3bfd 96be 6aeb 6c3d 080d 72be
000002b0: e767 313c 996c 60be 2303 133e 1d25 d13d
000002c0: 27c4 25bc 3c26 a63c 4a7c d23d 1d42 d8be
000002d0: 3a9b adbe 2089 bc3c 1f40 4abd d91a c7bc
000002e0: 158b 9bbc ca13 a83d 0acb 18be 74d1 aebc
000002f0: 9415 20be 2b18 bd3c 3a46 3a3e 3fe8 a8be
00000300: bdf8 94bb d02f 473d 6541 963c 4b94 ee3c
00000310: 6e3a 5ebd 88a8 293c d18e e1bd ce57 9d3d
00000320: 2deb 74bd e3fd 9fbd b824 59bd 53dd 813c
00000330: 299d cbbd 8c4a 6dbd e941 60bd b02e 063e
00000340: c8d7 a4bd a564 7ebd 3913 62bd 4fda d03d
00000350: c13e 723c ebc9 263d fdb8 08be 9e75 e0bc
00000360: 295f 11be abdc a43c baaf d4bd 763a 053d
00000370: 39f5 b83d 3d7e dfbc 7784 ec3a 049c 25bd
00000380: e901 b7bc 5a49 843d 1bab 52bc fb01 45be
00000390: 53dc 9cbe c7ce a53e 1138 fcbc 77dc 0b3e
000003a0: 48d8 71be e51d 38bd 42c2 613e 45a6 acbd
000003b0: 9516 713e 000b c9bd 20d2 2fbe e5f1 cc3d
000003c0: dcbe 49be eba4 0e3e f5d8 08be a74d b1bc
000003d0: e6e7 5e3e 2865 b43d cce2 803d 898f 3b3e
000003e0: bcda 1e3e be90 03bd 26b8 733e 2c7c febc
000003f0: 0696 5f3c ed6b 96be 20c0 f3bd 6449 83be
0.18276197 -0.20069729 -0.23402229 0.17829746 0.03131718 -0.12635536 -0.19490805 0.13414694
-0.05245464 0.025647745 -0.0698079 -0.24540077 -0.17940092 -0.07646096 -0.29296952 0.3176362
-0.20344903 0.19447275 -0.11203548 -0.4656141 0.16224553 -0.10969684 0.11595247 -0.048348296
0.0781617 0.019078104 -0.3366192 -0.15594575 0.075774185 0.016598118 0.19744541 -0.015481843
0.061311804 -0.0048130928 -0.3365803 0.14264613 0.090000175 0.18658368 -0.21085939 -0.084434845
0.31996793 0.08533871 0.2015803 0.07121964 0.13932233 -0.13178898 -0.074937016 0.10326373
-0.22134 -0.12975708 0.009269809 0.19462186 0.017224012 -0.025314461 -0.103843875 -0.011625987
-0.08861977 0.036938127 0.054343004 0.19959739 -0.14520857 0.19618185 -0.25980157 -0.013571482
-0.018680675 -0.03779198 -0.06652284 -0.02778785 -0.13621014 -0.18203601 -0.09589447 0.08288884
0.1807885 0.011374059 0.27397722 -0.0026885797 -0.30430615 -0.23760529 0.17566185 0.07601121
-0.07777257 0.19790849 -0.12611878 -0.1186265 0.036353104 -0.10919866 0.08100859 -0.21815495
-0.038728766 -0.07354399 0.07539593 0.2527954 -0.057518236 0.036619112 0.31983384 0.17519592
0.15973201 -0.2679913 -0.005408313 0.16743861 -0.14191015 -0.11500788 -0.13431534 -0.3511954
-0.0982102 -0.15648259 0.01730864 -0.01268311 -0.049542937 -0.038572993 0.34694785 0.08483336
0.085864194 0.100893065 0.39899567 -0.05251689 0.20835997 0.21836117 0.0678347 -0.06709929
-0.101848885 -0.09864186 -0.3539643 -0.15594625 0.23892725 0.12115795 0.008414456 0.050323687
-0.3295842 0.17153427 0.08713011 -0.1367357 -0.2555776 0.032802768 0.039567243 0.55572295
0.061671626 0.018717177 -0.04658534 -0.0775156 0.13226573 -0.23370844 -0.04703132 -0.044063427
-0.03389545 0.09165398 0.030464191 0.15256833 0.19768627 -0.030895792 0.011460947 0.23908749
0.07892484 -0.3877092 0.10223928 0.041092787 -0.15484673 -0.11604287 0.061235752 -0.1457894
-0.25237134 0.04724004 0.25036275 -0.042494524 0.030337896 -0.06343044 0.04379944 0.20624757
0.120030604 -0.29490075 0.057841696 -0.23637784 0.010827995 -0.21916427 0.14356665 0.10212157
-0.010117567 0.020281903 0.102776125 -0.4223794 -0.3390749 0.023014605 -0.049377557 -0.024304794
-0.018987218 0.082068995 -0.14921203 -0.02134011 -0.15633231 0.023082813 0.18190852 -0.3298969
-0.0045462535 0.048629582 0.01834173 0.029123446 -0.05425494 0.010355122 -0.11013568 0.07682763
-0.059794594 -0.07812097 -0.053013533 0.015852606 -0.09942085 -0.05793242 -0.054750357 0.13103747
-0.080489695 -0.0621077 -0.055194113 0.10197889 0.0147854695 0.040719908 -0.13351817 -0.027399834
-0.14196457 0.020124754 -0.1038508 0.032526456 0.090311475 -0.027281875 0.0018044849 -0.04043199
-0.022339778 0.06459303 -0.012858178 -0.19239037 -0.30636844 0.3238432 -0.030788453 0.1365832
-0.23617661 -0.044950385 0.2204676 -0.08430151 0.2354377 -0.09816551 -0.1717 0.10007075
-0.19701713 0.13930099 -0.13364013 -0.021643473 0.2176815 0.088083565 0.06293258 0.18316473
0.15513128 -0.03212046 0.23800716 -0.03106507 0.013646608 -0.29379216 -0.11901879 -0.2564193

context_transformer_0/ffn_layer_3/intermediate_dense/einsum/Einsum;context_transformer_0/ffn_layer_3/intermediate_dense/Relu;context_transformer_0/ffn_layer_3/intermediate_dense/add f4 [32]
00000000: 4194 acbd d637 0fbe 1934 633c 54b1 3dbe
00000010: 7697 80be 01f7 4abd 742d 943d 2976 7cbe
00000020: a39d 09be ddf0 1ebe f436 49bd a952 60be
00000030: 05b0 01be ae5f 9dbd 5f46 22bd 9166 83be
00000040: d1dc 96bd 512c 5bbe 7dc5 13bd 48f5 29be
00000050: 840d b6be 949c 87bd 1122 26be 5e68 23be
00000060: 84bb 06be cb62 4a3d 6efe 2abe 0aa2 39be
00000070: 564c c5bc 65c1 a2be 0973 03bd e657 b9bd
-0.08426715 -0.13986143 0.0138674015 -0.18524677 -0.25115556 -0.049551968 0.07235232 -0.2465445
-0.1343904 -0.1552157 -0.049124673 -0.21906532 -0.12664802 -0.07684265 -0.039617892 -0.2566419
-0.07366336 -0.21403624 -0.03607701 -0.16597474 -0.35557187 -0.06621662 -0.16223933 -0.15957782
-0.13157469 0.049410623 -0.1669862 -0.18128219 -0.024084251 -0.31788173 -0.032092128 -0.090499684
