.dart_tool/chrome-device/Default/optimization_guide_prediction_model_downloads/ce755797-54da-447c-9461-b21b71d0f507/model.tflite (tflite, 67216 bytes, 5 tensors)

dnn/hiddenlayer_1/bias/part_0 f4 [64]
00000000: 94d5 bb3b d341 c7bb c6ba 0b3e b023 a4bd
00000010: a346 55bd 412d 0ebc 07dc 993d 72f7 df3d
00000020: 8966 d5bb bb14 e6bc 08b9 b23d be73 32bd
00000030: 40f8 82ba 5cfb 703d 7432 083c 71f8 f7bb
00000040: c9c5 53bd 7935 973a a5e2 efbc 285c 713c
00000050: e50a 25bd e87e 983c 1430 2f3d 4a08 9c3d
00000060: 621c 22bd d73e d83d fa9e 1d3d e3a3 25bc
00000070: 7bd4 523c ff71 21bd 4348 17bc d299 7bbd
00000080: 8b34 003e b823 fd3d 4e50 d6bc 6ed5 653d
00000090: 1e26 b1bc 119e d8bc 97a6 a23c 4582 dbbb
000000a0: 615d 5cbd 4825 c83d c179 94bc ef69 99bc
000000b0: 826d c83d 4e5a 4dbd c65c 16bb 76bb d33d
000000c0: f8d2 33bd 23f7 b2bc b68d cc3d 937d d0bb
000000d0: 238c 31bd 190a 25bc 8b8d 88bd 477b 80bd
000000e0: 83b9 9d3d ffaf 013c ca6e 51bd 6ef1 4fbd
000000f0: 0646 a03c c2b2 9cbd 5b9f f339 7ac6 dc3c
0.0057322476 -0.006080845 0.13645467 -0.08014619 -0.052069318 -0.008677782 0.0751267 0.10935868
-0.0065124673 -0.028086057 0.08726698 -0.04356741 -0.0009992197 0.058833465 0.00831281 -0.0075674583
-0.051702294 0.0011536322 -0.029282877 0.014731444 -0.040293593 0.018615201 0.04277046 0.076187685
-0.03957785 0.10558861 0.03848169 -0.010109874 0.012868042 -0.039415356 -0.009233537 -0.06142599
0.12520044 0.123603284 -0.02616134 0.056111746 -0.021624621 -0.02644256 0.019854827 -0.006698879
-0.05379999 0.09772736 -0.018124463 -0.01872727 0.09786512 -0.05013495 -0.002294348 0.1033849
-0.043902367 -0.02184636 0.09987967 -0.006362626 -0.043346535 -0.010073208 -0.06667622 -0.06273513
0.07701399 0.007915496 -0.051131047 -0.050767355 0.01956464 -0.07651283 0.000464673 0.02695011

dnn/hiddenlayer_0/bias/part_0 f4 [128]
00000000: df73 c63c e68f 85bd 6d13 33bc 28b6 62bb
00000010: 987c 44bd 3451 263d b962 2d3d 0b87 ce3c
00000020: 8008 43bd 098c 63bc 2587 8abd 7ec6 8cbd
00000030: f698 6fbd 5640 f13c 3ba2 bfbc 7d02 e63c
00000040: 960e e93d ef23 97bd a753 09bd 9d4f 0dbc
00000050: 2c1f 803d 6cc3 6dbd 922b afbb b1c3 c7bd
00000060: 20d5 65bd a36e 713c 15fa 48bc 9125 52bb
00000070: d3d5 363c 7ad1 e33c 15dc a43c 66e6 ca3d
00000080: 9cde 3cbc 4356 72bc 684b a9bd 47df b8bb
00000090: 9e31 363d e6a1 7b3c 172d 313d a52c 143d
000000a0: dd89 493c 59e1 afbd cc43 e0bd 3532 773d
000000b0: c757 643d 2d96 bb3c 2479 783c 3c43 98bd
000000c0: cfc8 1abd 6cab 3dbd 4a59 853d 981a 8abd
000000d0: ec41 463d 42e8 c2bc e2bc 4f3c aace c8bd
000000e0: 0a77 ff3c 779f d23d 9e76 e6bb 8b77 98bc
000000f0: afec d93d 3640 46bd 60a9 da3a 83ec 45bc
00000100: ecc6 1f3c fb82 ecbd 9cf1 8cbd bf56 49bc
00000110: 3068 95bd c2fb 94bd fe38 bc3d 2166 07bd
00000120: 67ec 123e d23d b23a f5de e73c 7fa6 5c3b
00000130: 0beb 943d 06a5 26bd c20c 273d 0718 88bb
00000140: 2690 39be 1c1c 50bc 7762 c63c 2591 4d3d
00000150: 919c 2dbc 827c 0a3d 6f57 91bd 9a07 22bd
00000160: 4b9b 7d3d 5527 d1bc 2a35 103d b490 43be
00000170: fbe8 e3bd 3873 e23c 7720 5b3d d9a4 443d
00000180: 5b51 583d 4c36 e83c 21da 82bd a71d a6bc
00000190: 3913 a9bd 164c 073d f3c2 4039 c95f 90bc
000001a0: dffb 4e3d d5d4 b83c 612f 47bd 7c56 75bc
000001b0: e5fc 94bd 1ce0 083c cb61 503c f665 843d
000001c0: ec21 07bd ec24 343c de5c 3ebc ed56 6fbd
000001d0: 50d2 303d d084 323c 8d7b 823d 1416 b83b
000001e0: 301f 9abd 4645 ad3d 22ed e43d 2760 bb3c
000001f0: e9ec cfbb c94b 11bc dd97 40bb 1589 303d
0.024225174 -0.06521587 -0.010929924 -0.0034593437 -0.047970384 0.040604785 0.042330477 0.025210878
-0.047615528 -0.013888367 -0.06764058 -0.06873797 -0.058495484 0.029449623 -0.023392787 0.028077358
0.11379735 -0.07379901 -0.033527043 -0.008624938 0.062559456 -0.058047697 -0.00534577 -0.09754122
-0.056111455 0.0147358505 -0.012266655 -0.0032065848 0.011159378 0.027809847 0.020124475 0.09907226
-0.011527684 -0.014791074 -0.08266336 -0.005641851 0.044480912 0.015358424 0.04325589 0.03617539
0.012300936 -0.085879035 -0.10950431 0.060350616 0.055747773 0.022898758 0.015165601 -0.07434699
-0.037789162 -0.04630606 0.06511171 -0.067433536 0.04840271 -0.02379239 0.0126793105 -0.09805043
0.031184692 0.10284322 -0.0070331832 -0.01861169 0.10640847 -0.04840108 0.0016682558 -0.012080315
0.0097520165 -0.1154842 -0.06882021 -0.012288748 -0.07295263 -0.072745815 0.09190558 -0.033056382
0.14347993 0.0013598746 0.028304556 0.0033668575 0.072713934 -0.040684722 0.04078365 -0.004153255
-0.18121395 -0.012702014 0.024216874 0.05018725 -0.01059641 0.033810146 -0.07096755 -0.03955803
0.061915677 -0.02553145 0.03520695 -0.19098169 -0.11128422 0.027642831 0.053497758 0.048008773
0.05281196 0.028346203 -0.06389261 -0.020277811 -0.082556196 0.033031546 0.00018383171 -0.017623799
0.05053317 0.022562424 -0.04862917 -0.014974233 -0.07274798 0.008354213 0.012718628 0.0646476
-0.032991335 0.010995131 -0.011618821 -0.05843251 0.04316932 0.010895923 0.06371222 0.0056178663
-0.0752548 0.084604785 0.11178042 0.022872997 -0.0063453806 -0.008868166 -0.0029387393 0.04309948

dnn/hiddenlayer_0/MatMul f4 [128, 12]
00000000: eb08 c8bb 05e3 18be 3765 d6bd 3b98 7ebd
00000010: 8b0b 46be 6eef 82bc 2a48 393e 1772 d6bd
00000020: e038 e93d 2fd5 e0bd 9b27 173e 1893 e9bd
00000030: 85e8 1bbe d292 7e3d 5b83 2bbd d9c1 de3b
00000040: 7b07 113e 708e 413e 2f91 d63d ce55 a4bd
00000050: ca1e aabd 2a14 0abd d5ff 1fbd 7e00 43be
00000060: ee1e 94bb 2d25 813e 6c5e e2bb 4f89 1abe
00000070: 8303 ec3d 82c5 fabd 38d1 c4bd 4d8f 2b3e
00000080: 6dfa 043e d418 d03d d7e2 ffbc 123e 89bd
00000090: d70b ebbd 779b 403e 12d4 5ebd 8016 923d
000000a0: b352 063e 043c 31be 4b17 9fbd d528 e13c
000000b0: 3995 73bd 41d4 41bc 634f abbd ed3b e73d
000000c0: c6c6 fe3d 339f 0bbe dd30 0bbe edfe ecbb
000000d0: 7277 21bd 796e 0b3c 1164 cc3d 5354 abbd
000000e0: 95ed 253e 46b8 0dbe e2aa 11be 6149 80bd
000000f0: 3f18 27be 4526 5b3e 3e45 a4bd 4b30 033d
00000100: df02 0ebe 1a1e 273e bfc6 0e3e aade b63d
00000110: 2824 e13d 4689 04be 878c 07be e47a 3abe
00000120: e572 be3d 8272 e43d 0ee0 19be 6f61 afbd
00000130: 86dc 8bbd 1945 48be b636 b53d 139d f33d
00000140: df29 263e ba3d 03be 0376 01bc 36e3 ae3d
00000150: 3570 c9bd d6d8 09bc 1749 a1bd 362a 43be
00000160: 4542 e73d 2798 6bbd 3be8 993d 399b 813d
00000170: bcdb b03d a7fa 98bc ad9b cf3d b0af 823e
00000180: 63db b8bd 1722 94bd 6517 83bd 9371 6cbe
00000190: fa50 16be 0415 12bd adc2 2fbe a7d8 71bd
000001a0: d4f6 4abe d0a2 183e 0908 c3bc 3c34 823d
000001b0: bdee cabd 2c46 0d3e c253 d33d bfc1 cb3d
000001c0: d9c8 83bc ab6c 3e3c 4750 053d c2ed 223e
000001d0: 2d34 d43b a911 2a3d 3fa8 6a3e 39f4 3b3e
000001e0: 719e 99bc 0eef e43d 4ced 7fbd 20e8 723c
000001f0: 6477 763c e80d ab3d de25 0a3e a68e 303e
00000200: 63ca 04be 0db6 b73d d7d1 dd3d bf4e 163e
00000210: 6c8f f6bd 557c cabb e4bc 313e bf52 acbc
00000220: b1ee 273e a918 093e 810e 22be cc4b 053e
00000230: 251d 393e 2d31 f4bb 67e0 b4bd 7fcb c8bd
00000240: ff8e 57be 2d37 f2bd bb90 3d3e ea71 343e
00000250: 0a52 1c3e e37f 9bbc b1b4 74bd 0406 3b3e
00000260: c4c6 2cbd 5796 233e 5989 143c 69e1 2c3d
00000270: b51f 95bd e8bd 1ebe f573 ef3b 6fb9 f03c
00000280: 3ff0 febd 1415 3fbe bf56 ddbd 2a6f 9dbd
00000290: d42c 19be a70b fbbd 42e9 52be 9cc0 09bd
000002a0: d526 f2bd 3b54 0d3e 30c2 96bb 536c c0bd
000002b0: e29f 6fbe 792e 773d b891 543e ccae 9f3d
000002c0: 69d6 253e 5c51 a33d f81b b03d ed0c 93be
000002d0: 1a14 0a3e 07bb b5bd e7b2 b93b 7ca1 913d
000002e0: 9c41 a23b 2f49 733c 9726 45be f957 593c
000002f0: dc66 03bd 8cc2 063e 2a9b 493e 9fbe 22be
00000300: 35f5 25bc e965 703d 8ae0 8abd 1722 283e
00000310: 5e01 0f3e d4c6 cf3d ff8a 17be 994c 553e
00000320: e72c fdbd 5b57 fe3c 7f65 993d 6028 9b3c
00000330: 9fd6 56bd 92ec 3fbc 031d 85be 1042 dfbd
00000340: 2bef 613d 15de 0dbc d20d 1dbe 5763 d83d
00000350: db3a 32bd 0c61 113e b329 3fbe 8997 c53b
00000360: 9bea ecbd c8f7 0abe 22e9 ca3d 0308 e2bd
00000370: dc37 27be 4b82 5c3d 5857 1c3e dd3b 9c3c
00000380: c013 563e 1248 48be 75cc d23d 5ef8 e73d
00000390: 814c 353d 5181 9c3b 69f8 c3bd 6f1b 773d
000003a0: a3fe 0e3c 3eee 4b3d 171f c33d 142a 853c
000003b0: 3ba3 403d 93db 1fbe c98d cfbd 2af2 043e
000003c0: 78d4 923d 40a6 fa3d 7a15 9dbd 2078 0e3e
000003d0: 9aa9 2539 286a 99bd 58db 32bd 0ebe 11bd
000003e0: 1a9f e33b d0b8 72bd d1f7 a83d cd31 ceb9
000003f0: 216a cdbd 6537 52be 415f c93d d5a8 193e
-0.0061045787 -0.14930351 -0.10468524 -0.062156897 -0.19340341 -0.01598331 0.18093935 -0.1047098
0.11387801 -0.109781615 0.14761202 -0.11405009 -0.15225418 0.062151738 -0.041873317 0.006798011
0.1416301 0.18901992 0.1047691 -0.080241784 -0.08306654 -0.033710636 -0.03906234 -0.19043157
-0.0045202887 0.25223675 -0.0069082286 -0.15091442 0.11524107 -0.12244703 -0.09610218 0.16753884
0.12986155 0.101609856 -0.031236095 -0.06701292 -0.11476868 0.18809305 -0.054401465 0.07133198
0.13117485 -0.1730805 -0.07768115 0.02748529 -0.05946848 -0.01183039 -0.08364751 0.11290727
0.12440257 -0.13634948 -0.13592859 -0.007232538 -0.039420553 0.008510225 0.09980024 -0.08365693
0.16203912 -0.13839826 -0.14225343 -0.06263996 -0.16317843 0.21401317 -0.080210194 0.032028478
-0.13868283 0.16320077 0.13943003 0.089291885 0.109932244 -0.1294299 -0.132372 -0.18210942
0.09299258 0.11154653 -0.15026876 -0.08563506 -0.06829171 -0.19557609 0.08848326 0.11895194
0.1622691 -0.12816516 -0.007901671 0.08539431 -0.09835855 -0.008413514 -0.07875269 -0.19059071
0.11291937 -0.05751815 0.075149976 0.063284345 0.08635661 -0.018674208 0.10137115 0.25524664
-0.0902622 -0.072330646 -0.064009465 -0.230902 -0.14679328 -0.035664573 -0.17164107 -0.059044506
-0.1982072 0.14905858 -0.023807542 0.06357619 -0.09908817 0.137963 0.1031871 0.099490635
-0.016086983 0.011622588 0.03254726 0.1591101 0.0064759464 0.04152075 0.22915743 0.18354882
-0.018752309 0.111784086 -0.062482163 0.014825851 0.015043113 0.08352262 0.13491008 0.17241916
-0.1296783 0.0897027 0.108310394 0.14678477 -0.12039074 -0.0061793723 0.17357212 -0.02103555
0.16399647 0.13388313 -0.15825845 0.13017195 0.18077524 -0.0074521513 -0.08831864 -0.09804439
-0.21050642 -0.1182693 0.18512242 0.1762158 0.1526567 -0.01898188 -0.059742633 0.18264014
-0.042181745 0.15975319 0.009065949 0.042207155 -0.07281438 -0.15502131 0.0073075243 0.029385297
-0.12448167 -0.18660384 -0.10807561 -0.076872185 -0.14958507 -0.12258082 -0.20596793 -0.033630952
-0.11823813 0.13801663 -0.0046007857 -0.09395661 -0.23400834 0.060347054 0.20758712 0.07797012
0.16195072 0.079745024 0.085990846 -0.287208 0.1348423 -0.08873563 0.005667079 0.07110879
0.004951669 0.014848991 -0.19253002 0.013265603 -0.032080516 0.13160151 0.19688097 -0.15893029
-0.010129263 0.05869094 -0.06781109 0.16419254 0.13965365 0.10145345 -0.14799117 0.20830001
-0.1236208 0.031047514 0.07490062 0.01894015 -0.052450772 -0.011714118 -0.25998697 -0.10901272
0.05515973 -0.0086589055 -0.15337303 0.105658226 -0.04351316 0.14197177 -0.1866825 0.0060300273
-0.11568185 -0.13571084 0.09907748 -0.11036684 -0.16329902 0.053835195 0.15267694 0.019071514
0.20905972 -0.19558743 0.10292903 0.11326669 0.044262413 0.004776158 -0.09568865 0.060328897
0.008727702 0.049787752 0.09527414 0.016255416 0.04703067 -0.15611105 -0.10134465 0.12983003
0.071694314 0.12238741 -0.07670112 0.13913012 0.00015798808 -0.07490951 -0.043666214 -0.03558164
0.0069464566 -0.059258282 0.08250392 -0.00039328486 -0.10030008 -0.20528944 0.09832621 0.1500581

dnn/hiddenlayer_1/MatMul f4 [64, 128]
00000000: b400 cc3d 02f7 353b 4355 1e3e f74d 2b3e
00000010: 3e01 fdbd 3c27 143e 3e74 adbd 321c cdbd
00000020: b398 fd3d ae92 f33c 5510 dd3c da33 e83d
00000030: af19 503d 6062 6b3c f8f3 c43c b397 83bd
00000040: ad63 bcbd 805f 6dbd ac66 0dbe c76f 2ebd
00000050: 3332 c93d 7486 023d d8a4 323e 607e d2bd
00000060: 97fa e3bd 4b55 093e 3ba3 71bd d5d7 dabd
00000070: 6114 51bd c0f6 d23c 7914 79bd 5631 19bd
00000080: e95b 0c3e 89dc a8bd ff6b f6bd bbf9 21be
00000090: 3a3d c0bd 5895 a0bd 2f78 51bd 8ad3 c33d
000000a0: fb4e 19be 0252 c33d 5309 c83d b17c 07be
000000b0: d053 c2bc 0a03 233e 4a95 35bc 6c1e 15bc
000000c0: 80ae 133d 9b99 06bc 7242 253e 520a c0bd
000000d0: a049 fcbd 272f bc3b 8b3f 34be ec87 f83b
000000e0: 674e 55bd 5e14 0dbe 209a e3bd 6610 4d3e
000000f0: 3e0d 2bbc feb9 35be 734f cb3d cd2b 18be
00000100: bd8a b3bd 7cbf 853d 31cb 033e 2d00 1cbe
00000110: ff30 f93b 1a70 183c 4fee 4e3d 8646 46be
00000120: 351a 3ebe bd88 d2bd d48e 01bd c5de e33d
00000130: 10f0 ebbc 1006 f8bd c75d 3fbe 4078 26bc
00000140: 6bad 2fbe 7dd6 b93d cb18 143e d2c1 fbbd
00000150: c689 903d 4262 333e 6b7e 1d3e 6813 e7bd
00000160: b1cc 5e3d b16e 203e cdbf ab3d 4735 333d
00000170: c4ea b23c 5e9b 89bd 9689 04be dca7 b73d
00000180: 4090 3e3c 1271 023d 161c f7bc 9fe4 203d
00000190: b94b d03d f860 1b3d cb14 d63d 55af 94bc
000001a0: 7fc6 703d d9cb 1b3e bf76 1f3e 31ed 463d
000001b0: f8a8 473d 58c2 e93d 09c8 1fbd edfc 8e3d
000001c0: aa25 dfbd 9e93 4bbc 1e72 bdbc 2bfc 8b3d
000001d0: ad65 7e3d 896a cb3d 835d b63d 97ce 003e
000001e0: 938b be3c 39a6 24bd 8a22 063e f2df c03d
000001f0: 41d8 bb3d 93f0 a3bd 0ded 96bd 27a6 f9bc
00000200: e629 d3bd e010 3d3d a023 c6bd 3cf0 8fbd
00000210: 426a 1a3e 6eb6 293d f545 0b3e 20ab 623a
00000220: b12e 02be 0c2f 2c3e 2337 273e c626 33be
00000230: f4e7 a5bb d44d 10bd 51a6 6f3d bfca b63d
00000240: 92fe 8d3d dfb4 043e 1f20 41bd 2446 08be
00000250: 519a 0d3d 9485 e43d c91c 813c 1b9d 9ebd
00000260: 738a 923d 0433 97bd eca1 03be ecd9 203e
00000270: 3005 2b3e 61da 103e d290 043e 925d 39bd
00000280: df57 9c3d 118a c5bd ace9 fa3d e2b6 273e
00000290: acba c53d f9f2 2abe 15ae 4b3d cc59 0ebe
000002a0: f47b fc3b 66f2 27be e2ef 03be efac 2f3d
000002b0: b1f3 fabd 0c61 bf3d 91fd 063d 0760 33be
000002c0: 3b86 ba3b c292 bbbd 672d 5e3d e2c1 5e3a
000002d0: 00e6 aa3d 0520 1bbc d25d 6dbd 2945 d6bd
000002e0: 51e6 07be 50cc 25be 7ace 983c d6b8 2cbe
000002f0: 142f ccbd c69c c63c dac5 89bd 32bf 0fbe
00000300: c3fb 3fbd f522 c1bc 1745 253e 5531 3c3d
00000310: b2fe 83bd 1268 1dbe 7d62 c23d d3fe 55bc
00000320: 2e7e abbc fd4c 353e 7f28 ddbc cf62 e63d
00000330: 2cb3 093e f975 13be 159e 553d 2cfc 243e
00000340: 32bd 1c3e d9db 1f3e 5e62 e93c b7ad 23be
00000350: 3ca9 dabd 46ae 4b3c 8ec7 75bd 96f9 87bd
00000360: 44a7 fcbd 4111 013e ca05 0d3e 3291 013e
00000370: d64c 2abe a1e3 d8bd 84e6 86bd d807 a7bd
00000380: 43f0 453d 77f0 9b3d d86a 2b3e 21f1 ebbb
00000390: f9c7 c7bd aaa3 323e 61d9 0b3e 02d5 ec3d
000003a0: 8f6c f2bc 8548 d13d 3754 2fbd 2f9f 1d3e
000003b0: 2b44 08be 7a5a 31be e3a3 193e 0baa 9b3d
000003c0: 4268 a7bc 926b 2fbe cbb8 1c3e c5cc 833c
000003d0: 4c02 cdbc b68e b93d 876a df3b a131 023e
000003e0: 88ba f33d 40f2 963d dfce 513d ed52 563d
000003f0: bd6e cfbd 6180 2e3e 087c 513c e8c4 013e
0.099610716 0.0027765636 0.15462212 0.1672896 -0.123537526 0.14468092 -0.08469437 -0.100151435
0.12382641 0.029733028 0.026985327 0.11338015 0.050805744 0.014366716 0.024042115 -0.06425419
-0.09198699 -0.057952404 -0.13808697 -0.042587068 0.09824028 0.031866506 0.17445695 -0.1027801
-0.111317806 0.13411443 -0.05899356 -0.10685698 -0.051044825 0.025752425 -0.06081054 -0.037400566
0.13706936 -0.08245189 -0.12032317 -0.15817921 -0.09386678 -0.07840985 -0.051140007 0.09561832
-0.14971535 0.09537126 0.097674035 -0.1323116 -0.023721606 0.15919128 -0.011082957 -0.009101491
0.036055088 -0.008215333 0.16138628 -0.093769684 -0.1231873 0.0057429257 -0.17602365 0.0075845625
-0.052076723 -0.137773 -0.111133814 0.20025787 -0.010440169 -0.17746732 0.09927263 -0.14860459
-0.087666966 0.06530663 0.1287048 -0.15234442 0.0076047177 0.009304071 0.050520238 -0.1936284
-0.18564685 -0.10279987 -0.031630352 0.11126474 -0.028800994 -0.12110531 -0.18688117 -0.010160506
-0.17155997 0.090741135 0.14462583 -0.12292828 0.07057528 0.17517951 0.15380256 -0.11282998
0.054394428 0.15667225 0.083861925 0.04375198 0.02184046 -0.06719087 -0.1294311 0.089675635
0.011631072 0.031846114 -0.03016476 0.03928053 0.10170693 0.037934273 0.10453185 -0.018150011
0.05878305 0.1521448 0.15572642 0.048566047 0.048745126 0.11414021 -0.039009128 0.069818355
-0.10895856 -0.012425331 -0.023125704 0.068352066 0.062108684 0.09932429 0.08904555 0.12578808
0.023259914 -0.040197585 0.13099113 0.09417714 0.091721065 -0.0800487 -0.073694326 -0.030474735
-0.10310726 0.04615867 -0.09674764 -0.07028243 0.15079597 0.041433744 0.13600905 0.00086467154
-0.12713124 0.16814822 0.16329627 -0.1749526 -0.0050630514 -0.035230473 0.05850822 0.089253895
0.06933321 0.12959622 -0.047149774 -0.13308007 0.034570996 0.111582905 0.015760796 -0.07744809
0.07155313 -0.07382777 -0.12854737 0.1570813 0.16701198 0.14145805 0.1294587 -0.04525525
0.076339476 -0.09645475 0.122516006 0.16378358 0.096547455 -0.16694249 0.049726564 -0.13901442
0.007705206 -0.16401061 -0.12884477 0.04288953 -0.12253512 0.09344682 0.032956664 -0.175171
0.005692271 -0.09158851 0.054242518 0.0008497519 0.0834465 -0.009468083 -0.057950802 -0.1046241
-0.13271452 -0.1619122 0.018653143 -0.16867384 -0.09969917 0.024244677 -0.0672719 -0.14037779
-0.046870958 -0.02357624 0.16139637 0.045945484 -0.06445064 -0.15371731 0.094914414 -0.013061243
-0.02093419 0.1770515 -0.02699685 0.11249315 0.13447255 -0.14400472 0.052152712 0.16111821
0.15306547 0.15611209 0.028489288 -0.15984236 -0.1067681 0.012431687 -0.060004763 -0.066394016
-0.12336591 0.12604238 0.1377174 0.12653044 -0.16630873 -0.10590292 -0.06586936 -0.08155793
0.048324835 0.076142244 0.16739976 -0.0072003757 -0.09754939 0.17445245 0.13657142 0.115640655
-0.02959278 0.1021891 -0.042804923 0.15392755 -0.13307254 -0.1731967 0.15003924 0.076007925
-0.020435456 -0.17130879 0.15304868 0.016088853 -0.02502551 0.09060423 0.006818119 0.12714244
0.119008124 0.07370424 0.05122268 0.052325178 -0.101285435 0.1704116 0.012785919 0.1267277

dnn/logits/MatMul f4 [1, 64]
00000000: 0fe5 e6bd b74a 1bbc ee24 d93e 7544 b7be
00000010: 5e74 5dbe aa42 a5bd 3530 a43e b414 873e
00000020: 44e4 91be b5c8 acbc 57b1 4e3e 74c6 0cbe
00000030: 9e04 c7bc 93cd cb3e 00de 713e dd82 20be
00000040: c706 02be 401a d93d ad66 94bd 54be 9bbd
00000050: e2e4 adbe d5ff bebd 70fd 2abe 2605 703e
00000060: b033 f0bd 83c1 c63e be43 083e a6da 143e
00000070: 8458 cdbd 718a e6bd 6a5b 94be a46e 5abc
00000080: 8334 d93e 2494 a03e acc3 06be 8c1a 733e
00000090: 1383 073d 6bc0 a8be d277 2cbe 34e0 423e
000000a0: eb44 c4be 0f7e 843e 881f 2fbe dd31 b7be
000000b0: 7031 bc3e 2f84 96be 1a7f b9be 9d0a 8b3e
000000c0: b876 9abe d304 b1bd ba9b ac3e 4afc e8bc
000000d0: e471 63be 3cb0 343d 9d12 7cbe 4821 90be
000000e0: d3d5 6e3e 823b b73e ee8b a5be b21a 30be
000000f0: 4033 f03c fcce c33e d735 87bd 1866 5d3e
-0.11274158 -0.009478263 0.42410988 -0.35794416 -0.21626422 -0.08069356 0.3206803 0.26382983
-0.28494465 -0.021091798 0.20184837 -0.13747579 -0.024294194 0.39805278 0.23619843 -0.1567492
-0.12697898 0.1060071 -0.07246146 -0.076046616 -0.33963686 -0.0932614 -0.16698241 0.23439464
-0.117286086 0.38819513 0.13307092 0.14536533 -0.10026649 -0.11256874 -0.28975993 -0.013332043
0.42422876 0.31363022 -0.1316058 0.23740596 0.033083986 -0.32959303 -0.16842583 0.19030839
-0.3833383 0.25877425 -0.17101872 -0.3578023 0.36756468 -0.29397723 -0.36229783 0.27156535
-0.301687 -0.08643498 0.3371256 -0.028440613 -0.22211415 0.044113383 -0.24616475 -0.28150392
0.23323755 0.35787588 -0.3233332 -0.17197683 0.029321313 0.38243854 -0.06602066 0.21620977
